models/mlp_SPY_20260130.pt (torch, 28387 bytes, 18 tensors)

bn_input.weight f4 [35]
00000000: e1c3 773f 5504 653f 0564 743f 24cf 7a3f
00000010: 75a9 753f 44e4 723f cfa4 713f 4dd3 803f
00000020: c56f 673f 6734 743f 96a3 6f3f 7bc6 6f3f
00000030: be78 6a3f 6f38 7b3f f96e 7a3f 212b 763f
00000040: 46e5 8e3f 88f4 923f 7688 793f 1c48 743f
00000050: be10 813f f25e 733f 72c9 7b3f 629e 6d3f
00000060: 408f 733f 5b6e 703f e01c 5a3f 1536 5a3f
00000070: b16e 6a3f b4c2 6e3f baa7 773f 7278 723f
00000080: 342e 793f 47c6 633f ee7d 7b3f
0.9678326 0.89459735 0.9546512 0.9797232 0.95961696 0.94879556 0.943921 1.0064484
0.9040492 0.9539246 0.9360899 0.9366223 0.9159049 0.98132986 0.9782558 0.9615956
1.1163719 1.1480875 0.9747385 0.9542253 1.0083234 0.9506675 0.98354256 0.928198
0.9514046 0.9391839 0.8520031 0.8523877 0.9157515 0.93265843 0.96740305 0.94715035
0.97336125 0.8897442 0.9823903

bn_input.bias f4 [35]
00000000: 887a 1f39 c8f8 2b38 70da a939 375e 98b9
00000010: f457 dc38 7e10 0fb9 05da b1b9 2f2f 27ba
00000020: 2a0f e8b9 3e34 8239 559d 8db7 e649 b9b8
00000030: cf41 1e37 ba4f 26b8 6e4f 98b8 0a47 2fb9
00000040: 56b4 ab3a 1462 d53a 1bc9 893a 14cd 5c3a
00000050: 715d 94b9 feef ae39 b024 8239 58a4 9eb9
00000060: cdef e439 edcc 73b9 f938 aeb9 572d 1b39
00000070: c02b 1238 1b3d d738 634a 3939 5d4c 3239
00000080: 35d1 a0b9 810b cab9 1db0 0eba
0.00015209068 4.1001273e-05 0.0003239694 -0.00029061895 0.000105068 -0.00013643687 -0.00033922508 -0.00063775753
-0.00044261786 0.00024834456 -1.6881773e-05 -8.835252e-05 9.432856e-06 -3.9651735e-05 -7.26272e-05 -0.00016715765
0.0013100009 0.001627984 0.0010512205 0.0008422893 -0.0002829838 0.00033366674 0.00024822867 -0.00030258554
0.00043666214 -0.00023250627 -0.00033230314 0.00014798842 3.4849858e-05 0.00010263381 0.00017670686 0.0001700385
-0.0003067345 -0.00038537013 -0.0005443113

bn_input.running_mean f4 [35]
00000000: de10 933b dda4 093c a0ad 7c3c 77c4 183d
00000010: 9dcc 863b ab40 fd3b ffd8 653c e45f 053d
00000020: 8c5b 313c 6331 3a3c 07d5 453c 2c88 573c
00000030: c3ca bf3a 4734 6c3b 2212 f03b b0aa 913c
00000040: e54f 6242 88bb 5e42 106e 7c3b a213 663b
00000050: 82d3 b239 a4a2 05bd 2030 3b3d 708f a13d
00000060: 2b95 823c d635 7e3f 967f 393d 4df8 1d3f
00000070: 5fe3 253f 8583 2e3f d17c 383f de10 933b
00000080: dda4 093c a0ad 7c3c 77c4 183d
0.0044880947 0.008401123 0.015422255 0.03729674 0.0041137473 0.0077286563 0.014028787 0.03256215
0.010825049 0.011364314 0.012074715 0.0131550245 0.0014632571 0.0036041902 0.0073263803 0.017781585
56.578022 55.683136 0.003851775 0.0035106917 0.0003410839 -0.03262581 0.045700192 0.07888687
0.01594027 0.993009 0.04528769 0.61707 0.64800066 0.6816943 0.72065455 0.0044880947
0.008401123 0.015422255 0.03729674

bn_input.running_var f4 [35]
00000000: 9c4c 423a b5be a93a a094 2a3b b7b7 0a3c
00000010: 7822 403a b6c2 a73a ab76 293b 92ab 083c
00000020: 8094 4838 b41e 4238 5808 8838 8099 9138
00000030: ebc8 3839 7c7e c539 6a7f 433a b9eb 183b
00000040: e898 6f43 d8ad d442 24e0 2339 ae4c 2f39
00000050: e303 9e37 fa8c b53a 1c26 a83a 937f 1e3b
00000060: 4d5f 9b38 3d99 033e 5e91 ec3d fb57 cb3d
00000070: 1aaa c23d 0c3d b13d c274 9c3d 9c4c 423a
00000080: b5be a93a a094 2a3b b7b7 0a3c
0.00074119284 0.0012950512 0.0026028529 0.008466653 0.0007329355 0.0012799117 0.0025858085 0.008341687
4.7822017e-05 4.62818e-05 6.4865395e-05 6.9427304e-05 0.00017622455 0.00037669006 0.0007457646 0.002333386
239.59729 106.33954 0.0001562839 0.00016717866 1.8836878e-05 0.0013851218 0.001282874 0.0024184927
7.408727e-05 0.12851425 0.11551164 0.0992889 0.095051005 0.08654222 0.07639457 0.00074119284
0.0012950512 0.0026028529 0.008466653

fc1.weight f4 [64, 35]
00000000: 608c f53d 66b0 533c 4e5b d43d 972f b13d
00000010: 8b63 46bc e1a1 d63d 8c15 63bd c817 053c
00000020: 06eb 45bc 7d19 133e 6931 183d 2162 0cbe
00000030: 74b8 c9bd 3dd4 8dbd 5a3d 073e 7cf5 13bb
00000040: 73e2 3fbb 5575 76be aeb2 a4bd f8d2 1fbe
00000050: 3a75 8f3d fdfc a5bd e74d 04be e4bf 153e
00000060: 7b47 93bc aae1 763d c426 eebd ed97 71bd
00000070: 1652 c03b 0ba9 8e3d d4f2 83bd 7a03 ebbd
00000080: a414 97bd 5436 d9bd 4fcf 82bd a73c 19bd
00000090: feba 69bc d213 043d af5a a13d 6981 9abd
000000a0: 88a3 9ebd 76a3 a63d 3066 1f3e 930f 1fbe
000000b0: d020 b13d af62 0d3e ccbb b23d c0e4 01be
000000c0: c676 08be 5649 133e 3c3a 203e 7945 8f3d
000000d0: 1775 f73c f11a 1d3e 5463 ac3d 4134 e33d
000000e0: f115 f4bd 1d98 48be 10e5 923d 0354 113e
000000f0: 2d0d 54bd 85c5 1dbe d191 27be 5cd4 303e
00000100: 102e 1fbe da04 063e 731a e13d 7e62 28be
00000110: 6327 f53d eec8 cc3d 2f3a 5abd deb5 683d
00000120: 0445 1ebd 5476 2e3d cbbb 5c3c 73a7 103e
00000130: 447d e9bc 04c8 ecbd 93c3 953d 69b4 383e
00000140: bddc 383e 6e1b 5abd fb72 19be aec5 273d
00000150: ff83 8fbd 8014 47bd 56d8 e9bc f21b 5ebd
00000160: 40f7 6b3d ef61 993d 9cc0 593d 667d cebd
00000170: 633d 013e 7159 913d a328 103c 5ffc 9e3d
00000180: 361a 0a3e 4159 883d eb66 da3d b2bf eb3d
00000190: c8bd 283e 9f0a b73d b7c4 85bd 7a1e 8b3c
000001a0: c145 853d ee07 c7bd c960 29be d5df c6bd
000001b0: c5cd 003e fc20 d9bd d1ae 8ebd 7ac6 18be
000001c0: fe0c 363e 385f cfbd d7d4 eebc 5db3 753d
000001d0: f7e2 3a3d a3c3 d63d aea2 12be 6223 76bd
000001e0: 53ed c83a 4bba f13d a49b d5bc db90 53bd
000001f0: 5aec 043e 2eb4 24be 58a0 eabd f7a1 ec3d
00000200: 41ed a03d a31f 513d b4d9 c23d 27d4 cabd
00000210: 53ee 22be d39f 333c c0fa a9bd 9d02 273e
00000220: 73b3 d23d c065 1bbe 28cb 163e ccbf ae3d
00000230: 25c8 debd bd0a 07be 2ff4 86bd 39d5 5abb
00000240: 0a66 833c e1fd ba3d 7a1b 8c3c a6ba 5bbd
00000250: 94d7 863c 1d38 173c b5c9 07be 1372 ddbc
00000260: 9cc8 483c b71c 0a3e efd1 7dbd 1e52 37be
00000270: b62e 8bbd 7720 e23d 7076 713d 69a0 2e3e
00000280: 999b 0d3d c4d6 0bbd e61e ab3d 0b63 83bc
00000290: fce9 243e 2cc5 35bd 4c2f 8dbb 4b13 1fbd
000002a0: b8cc 49bc c97c cf3d 660b 0d3c ad22 623d
000002b0: 6454 f1bd a2a1 113e 8983 573d ae41 223e
000002c0: cfde 4cbd 477f 213c af7b 3b3d 38fb c63d
000002d0: dd90 2abd c01e de3d 9a4f 9abd 74fc 773b
000002e0: 20ad 033e 80d5 3b3d d7ae b7bc 257d c83d
000002f0: a24a dbbc f130 2e3c 59de 04be a4d6 4f3d
00000300: 443d 553d 40e0 dabd a4c8 33be e742 48bd
00000310: 001b 76bd 56f9 07be 86a2 ec3c 606e 0c3e
00000320: c7a5 fb3a 6881 ccbd 0765 0bbe 8327 3fbc
00000330: 734e 0ebe 615d b53d 31da a53d f9aa 233e
00000340: d217 123e 0890 5d3d 2831 383d ca90 ca3d
00000350: 15f2 b9bb 74db 9c3d 2a51 edba 47ae a5bd
00000360: a5ed 4b3d b422 0b3e 94fa b43d 69df 3bbd
00000370: 2163 183e ffd4 17be 746d 82bd 1617 a3bd
00000380: 6eab 223d 2c02 6abc 67b0 1a3e cb5d 05be
00000390: 5249 f6bd 920f 34bd a29f fb3c e0a6 80bd
000003a0: 53ab 163e a46a 123c 1626 403c ea62 0c3e
000003b0: b664 fa3c fc64 20bc 594f b23d 0f29 423d
000003c0: 3f3f 403d 45ab 30be 89f9 3d3d 4fa3 8a3d
000003d0: 1717 c8bd 29e7 fa3c d860 9cbc 3ab8 25be
000003e0: f506 a53d 8c4f c9bd b226 50bd a3f9 bc3d
000003f0: 53f2 3abb e59d d1bc 4581 a9bd b282 883b
0.11989665 0.012920475 0.103689775 0.08651655 -0.012108694 0.10480095 -0.05544047 0.008123346
-0.01207996 0.14365192 0.037156496 -0.13709308 -0.09849635 -0.06925247 0.13206998 -0.002257674
-0.0029279261 -0.24068196 -0.08041893 -0.15607822 0.07004781 -0.08104894 -0.12920342 0.14623982
-0.01797842 0.060273804 -0.11628488 -0.05898278 0.0058691604 0.06965836 -0.064428 -0.114752725
-0.07376984 -0.106060654 -0.06387197 -0.03741136 -0.014265774 0.032245465 0.07878625 -0.07544214
-0.07746035 0.081366464 0.15566325 -0.15533285 0.086488366 0.13807176 0.08727226 -0.12684917
-0.13326558 0.14383444 0.15647215 0.06995673 0.0302072 0.15342309 0.08417383 0.11093951
-0.119182475 -0.19589277 0.071725965 0.14192204 -0.051770378 -0.15407379 -0.16364218 0.17268509
-0.15544915 0.13087788 0.10991373 -0.16443822 0.11970403 0.09999262 -0.053278144 0.056814067
-0.038640037 0.042593315 0.013472508 0.14126377 -0.028502114 -0.115615875 0.073126934 0.18037571
0.18052955 -0.053248815 -0.14985268 0.040960006 -0.07007598 -0.048603535 -0.02854554 -0.05422587
0.057608843 0.074893825 0.053162202 -0.100825116 0.12621073 0.07097138 0.008798751 0.0776298
0.13486561 0.06657649 0.10664161 0.11511172 0.16478646 0.08937573 -0.06531661 0.016982306
0.06507445 -0.09718309 -0.16540827 -0.09710661 0.12578495 -0.106019944 -0.06966937 -0.14919463
0.17778394 -0.101255834 -0.029154224 0.059985507 0.045626607 0.104865335 -0.1431987 -0.060092337
0.0015329517 0.11803111 -0.026075192 -0.051651817 0.12980786 -0.16084358 -0.114563644 0.1155433
0.078577526 0.05105556 0.0951418 -0.09903746 -0.15911226 0.010963398 -0.0829978 0.1630959
0.102881335 -0.15175533 0.14725935 0.08532676 -0.10878018 -0.1318769 -0.06589543 -0.003339125
0.016039867 0.09130455 0.017102946 -0.0536448 0.016460218 0.009229687 -0.13260539 -0.027031934
0.01225486 0.13487516 -0.061967786 -0.17902419 -0.06796019 0.110413484 0.05895084 0.17053379
0.034572218 -0.034140363 0.08355503 -0.016038438 0.16104883 -0.04437749 -0.0043086167 -0.03883676
-0.012316875 0.10131223 0.008608675 0.05520885 -0.11783674 0.14221814 0.052615676 0.15845367
-0.050017174 0.009857005 0.04577225 0.09715885 -0.04164206 0.10845709 -0.07534714 0.0037839683
0.1285901 0.045857906 -0.022422237 0.097894944 -0.026768986 0.010631786 -0.12975444 0.050741807
0.05206038 -0.106873035 -0.17557007 -0.048891928 -0.060084343 -0.13278708 0.028886091 0.1371398
0.0019199186 -0.0998562 -0.13612758 -0.011667135 -0.13897114 0.08855701 0.08098257 0.1598319
0.14266899 0.054092437 0.044968754 0.098908976 -0.0056746104 0.07659045 -0.0018105854 -0.080898814
0.049787182 0.13587457 0.088368565 -0.045867357 0.14881565 -0.14827345 -0.06368533 -0.07963388
0.03971427 -0.014282744 0.15106355 -0.1302406 -0.120257035 -0.04396016 0.030715767 -0.06281829
0.14713793 0.008936558 0.01172783 0.13709608 0.0305656 -0.009789702 0.087065406 0.047402438
0.046935316 -0.17252834 0.046380553 0.0676943 -0.09770029 0.030627804 -0.019089147 -0.16183558
0.080579676 -0.098296255 -0.050818153 0.09227302 -0.0028525784 -0.025587985 -0.08276609 0.0041659707

fc1.bias f4 [64]
00000000: 71f4 17be eca2 713d 6a5e b63c b621 7dbd
00000010: d840 19be 4dcf c5bb 3142 c73c 2349 593d
00000020: 7e3f 723d 107b 503d e11f 163e bbd3 2dbd
00000030: 3f19 debd 4682 1ebe d9bf b33c b3fa 283e
00000040: 4f64 233c 84a4 06be 322a 3d3d ffe5 743c
00000050: 26cc 9c3c 150f 77bd 543a 01be 67cb ed3d
00000060: e027 21be 39ab 87bd f9fa 8c3c 013d ffbd
00000070: 42f4 a8bc 5f08 f2bd b160 103e b666 a73d
00000080: afd3 eabd 9438 753d 9c29 cd3d 16c3 d1bd
00000090: b778 25be 1831 c9bd fca1 b93b 31d3 b0bd
000000a0: ebf9 b1bd 51d9 a83d e6e4 0a3d 23a7 babd
000000b0: 4e80 0abe 37c8 27be d7ee d8bd 17a3 203e
000000c0: ba48 0ebe 6632 d63d cc14 0ebe 16ba 173c
000000d0: 4067 0a3e 3191 56bd 197e a7bd 27d8 22bd
000000e0: cc59 b53d 2eca 16be dc97 7e3a 7610 e83c
000000f0: e7e7 853d 1b96 f13d 0b02 f33d 3d0d 0a3c
-0.14839341 0.058993265 0.022261817 -0.061799727 -0.14966142 -0.006036675 0.024323555 0.053048264
0.059142582 0.05089861 0.14660598 -0.04243825 -0.10844659 -0.15479383 0.021942066 0.16501884
0.009972646 -0.13148695 0.04618282 0.0149474135 0.019140314 -0.060317118 -0.12619907 0.116110615
-0.15737867 -0.06624455 0.017209517 -0.124628074 -0.020624284 -0.11818003 0.14099385 0.081738874
-0.11466157 0.05986841 0.10017702 -0.10242288 -0.1615933 -0.09823817 0.005665062 -0.086340316
-0.08690246 0.08244575 0.0339097 -0.0911391 -0.13525507 -0.1638497 -0.1059243 0.15687214
-0.1389493 0.104588315 -0.13875121 0.009260675 0.13515949 -0.05238456 -0.08178348 -0.03975692
0.08855018 -0.14725563 0.000971196 0.028328162 0.065383725 0.117962085 0.11865624 0.008426008

bn1.weight f4 [64]
00000000: 61cd 7a3f 9930 713f 96f2 793f 7569 763f
00000010: 37f4 7a3f b8e9 723f 2190 863f 7328 823f
00000020: cfaa 793f b3b9 773f 371c 6c3f 9558 823f
00000030: 8b34 813f 9104 763f b034 743f fda5 7a3f
00000040: 631c 783f 805b 763f 6af5 763f 7afe 8b3f
00000050: 8917 7e3f 2e85 783f 0aac 823f 2f66 783f
00000060: 2679 7b3f 9da0 6b3f 0f6d 773f f9aa 733f
00000070: 8ec8 723f fa01 6f3f 54cc 8c3f 57cb 793f
00000080: ae1e 7a3f d6bf 713f 376a 753f 568e 813f
00000090: 9da4 703f 6276 703f 4c91 8a3f 07b8 733f
000000a0: cd70 823f ad57 743f 8b6e 783f 9c28 783f
000000b0: b9a9 823f 49dd 763f c0e9 7e3f bbf2 7d3f
000000c0: 00ce 753f ec9f 803f 0488 753f d948 873f
000000d0: b3e7 763f 4141 843f 98a7 7d3f a9f2 6f3f
000000e0: d3c2 823f 8ceb 753f 1f48 753f 4bed 7d3f
000000f0: 3b30 7e3f 6419 723f 37e3 8a3f 29b7 823f
0.97969633 0.9421478 0.9763578 0.96254665 0.9802889 0.94887877 1.0512735 1.0168594
0.9752626 0.9676773 0.9223055 1.0183283 1.009416 0.9610072 0.95392895 0.9790953
0.96918315 0.9623337 0.9646822 1.0937035 0.9925466 0.97078216 1.0208752 0.9703092
0.9823173 0.9204195 0.96650785 0.9518276 0.9483727 0.9336239 1.0999856 0.97575897
0.97703063 0.94433343 0.95865196 1.0121562 0.9400118 0.9393064 1.0825591 0.9520268
1.0190674 0.9544628 0.97043675 0.96936965 1.0208045 0.96431404 0.99575424 0.991985
0.96017456 1.0048804 0.9591067 1.0569106 0.96447295 1.0332414 0.9908385 0.93729645
1.0215706 0.9606254 0.95813173 0.99190205 0.99292344 0.94569993 1.085059 1.0212146

bn1.bias f4 [64]
00000000: c861 b3bc b050 00bd c88c 85bd 1523 39bc
00000010: 9e83 08bc 7aaa 19bd 7b21 803c 49b3 eb3c
00000020: 168a f6bc bdb2 fcbb b34e 66bd e85b 023d
00000030: e5f4 9e3b 12e1 a8bc 7d83 94bc 0fc9 adbb
00000040: 714c 39bc 172c 42bc ffd2 07bd fa34 2a3d
00000050: 5607 7abb e929 35bd 296c 8e3d 2a9c 90bc
00000060: 18f6 6ebc 4dc7 c9bc cd50 03bd 468c 18bd
00000070: 6700 44bd 3c8d 05bd ad6a a83d d75e 953c
00000080: 8af3 1dbc 89e9 33bd 0487 adbc a3cd bc3c
00000090: 493e b5bc 7257 3abd 16c1 4a3d 1abe 7bbc
000000a0: b9ba 363c a967 32bd aad5 04bd 0774 68bc
000000b0: 50fc 273c 9d79 083a a77d babc 9f27 05bd
000000c0: d9a1 e0b9 eda9 863c b1cd 7cbd 208b 913d
000000d0: 2a4f 30bd c2bb 093d 820c 5a3d cfe7 1abd
000000e0: 8895 533d 4e23 a6bc 31d6 66bd 53f0 9dbc
000000f0: cd30 a73c 22fa ccba c659 373d 5c2c 19bc
-0.021897212 -0.03132695 -0.065209925 -0.011299868 -0.008332161 -0.037516095 0.015640965 0.028772013
-0.030095141 -0.007711737 -0.056227397 0.03182593 0.004850971 -0.020615134 -0.018129105 -0.005303509
-0.011309729 -0.011851332 -0.033160206 0.04155443 -0.0038151345 -0.04422942 0.06954224 -0.01765259
-0.0145850405 -0.024631167 -0.03205948 -0.03724315 -0.047851946 -0.032605395 0.08223472 0.0182337
-0.009640584 -0.04392389 -0.021182545 0.023047274 -0.022124426 -0.04549355 0.049500547 -0.015365148
0.011152917 -0.04355589 -0.03243033 -0.014187819 0.010253027 0.000520611 -0.022764994 -0.03250849
-0.00042845195 0.016438449 -0.0617196 0.07106614 -0.043044247 0.033626325 0.053234585 -0.037818726
0.051656276 -0.020280506 -0.056356613 -0.019279635 0.020409012 -0.001563851 0.04476335 -0.009348955

bn1.running_mean f4 [64]
00000000: eb8e 18be 888b 723d 4e6f b63c 49e6 7cbd
00000010: cde5 18be e76a c9bb 4f5a c43c e58b 583d
00000020: b09c 6f3d e51f 513d ab98 153e 5f43 2ebd
00000030: b890 debd b691 1ebe 8af5 b73c d558 283e
00000040: 78b8 273c b6ce 05be 7d72 3d3d 6e8f 703c
00000050: 4dc3 9d3c 2cae 78bd 87af 01be 57dc ee3d
00000060: 2330 21be d651 88bd ba3a 8b3c b621 ffbd
00000070: 6ea8 a9bc 502e f2bd 9957 103e c55d a83d
00000080: 9a9a eabd c43d 773d 9b05 cd3d d5cf d1bd
00000090: 348a 25be 38b5 c9bd f0fb b13b 44e7 b0bd
000000a0: 6f08 b1bd 9be2 a83d daf4 0a3d 810a babd
000000b0: 7ed7 0abe 5e8f 27be b044 d8bd 9a7d 203e
000000c0: fb7c 0ebe cb31 d63d f723 0ebe 994e 173c
000000d0: 2fbf 0a3e 3401 58bd afa7 a6bd 7918 25bd
000000e0: ae2f b63d d680 17be 6f80 4e3a 6a49 e83c
000000f0: b361 853d b01c f13d 11fb f23d 4377 0b3c
-0.14898269 0.0592151 0.022269871 -0.061743055 -0.14931412 -0.006146777 0.023968844 0.05286779
0.05849904 0.051055808 0.1460902 -0.04254472 -0.10867447 -0.15485272 0.02245595 0.16440137
0.010236852 -0.13067135 0.046251763 0.014682634 0.019258166 -0.06071298 -0.12664615 0.1166312
-0.15741019 -0.06656234 0.016995776 -0.12457602 -0.020710196 -0.1182524 0.14095916 0.0822101
-0.11455269 0.06036164 0.10010835 -0.10244719 -0.16166002 -0.09849018 0.0054316446 -0.086378604
-0.08644187 0.082463466 0.033924915 -0.09084035 -0.13558766 -0.16363284 -0.10559976 0.15672913
-0.13914864 0.10458716 -0.13880907 0.009235048 0.13549493 -0.052735522 -0.08137452 -0.040306542
0.08895813 -0.14795241 0.00078774145 0.028355319 0.06512775 0.1177305 0.11864293 0.008512321

bn1.running_var f4 [64]
00000000: 98b9 f43e 28d0 e83e 47d2 8b3e c029 133f
00000010: c431 f93c 2892 793e b512 e13d f6e0 293d
00000020: 98d9 d93e b385 fe3d 5ac1 473e 4f9c 7c3d
00000030: 056f 883d 3cdf 363e 3a07 c13d 0712 6b3e
00000040: 8054 2b3e d2a7 723e 9831 9b3e 23df 043d
00000050: c7aa ac3d 6a04 503d 6c32 8d3d 9cc1 743e
00000060: acbe a03e ddaa 4b3e e998 ad3e 1f76 753f
00000070: 73f6 a43e 4a7e 0b3f 6332 063d cf3a d93d
00000080: 6f0e 8c3d 2eb7 163f a6cc 983e 50ae 893d
00000090: bca4 b73e 4184 893d 4857 853d fe07 af3d
000000a0: a3f6 053e 6753 4f3f 0e62 c03d 2a3f f03d
000000b0: 3144 783d 1aed 6b3e 1632 223f 01c0 773e
000000c0: 8156 103f 7640 983d d969 9e3e 0f0d 6a3d
000000d0: 8378 0c3d 170b cf3d 3e80 3a3d ac21 713e
000000e0: c324 ca3d f9a1 ab3d 3fea 493e f347 713e
000000f0: b70f 333e a2cc 6c3e 466c 9c3d 7476 733d
0.47797847 0.4547131 0.27308866 0.5748558 0.030419238 0.2437216 0.10989896 0.041474305
0.42548823 0.12427845 0.19507352 0.061672505 0.066618 0.17858595 0.094252065 0.22956096
0.16731453 0.23696831 0.30311275 0.032439362 0.08431011 0.05078546 0.06894383 0.23901981
0.3139547 0.19889398 0.33905724 0.95883363 0.32219276 0.54489577 0.032762896 0.1060692
0.068386905 0.5887326 0.29843634 0.067227006 0.3586787 0.067146786 0.06510788 0.08546446
0.13082366 0.80986637 0.093937024 0.117307976 0.060611907 0.23039666 0.63357675 0.24194337
0.56381994 0.0743417 0.3094013 0.05714136 0.034294616 0.10109537 0.045532458 0.23548001
0.09870293 0.08380503 0.19718264 0.23562603 0.17486463 0.23124936 0.07637839 0.059439138

fc2.weight f4 [32, 64]
00000000: 093d 43bd fc65 a2bd 1e97 0abe 5c54 363d
00000010: 66b1 e4bc 0cbc dabd 0a3c 31bc 2059 d1bc
00000020: 8696 2fbe 78f0 82bd 3b63 e53d 35ba 013d
00000030: 29df d2bc eb5e e8bd f1ed 153d 2174 dd3d
00000040: b7ea 473d a060 a13c 37bc 153d f58c db3d
00000050: 713f f93c 446c 5bbc dc36 453d 5592 a53b
00000060: 6e7c a0bb 29ce 163d 911d 503d b8f5 553d
00000070: cbc9 fa3c 5428 40bd bd03 533c 852b 25be
00000080: fb0b ce3c 9d3d 233d 02ac f33d 68bd 833d
00000090: d8bb aa3c 2d55 dfbd a260 093e 72ba 813d
000000a0: b70f 20be 2a27 57bc 8591 84bc c859 1d3d
000000b0: 1009 3abb 045d 05bd efcc 18be b8fc ddbc
000000c0: 119f 013d 686f a5bd 25c2 b9bd 0c24 81bd
000000d0: 7efa 5c3d 9897 19bd 91ab e5bd 5915 933d
000000e0: d903 9dbd cfe9 c03d 872b e9bd 8dec babd
000000f0: f16a 30be 1cdc 6a3d ad85 223c aefb 663c
00000100: c032 a5bd 1e4d 1dbe 0543 13bd 5d8f 013d
00000110: 5b2b 313d 7add d13b eeb5 c1bd d482 9e3d
00000120: 90ff 183c 77c5 4dbd 104c 96bd 14eb 84bd
00000130: 9bde 013c b321 febd 0760 7b3d 1642 e0bd
00000140: b7ff 21bd 9f62 e7bd 7669 5c3d d172 b9bc
00000150: c120 a8bd 5fdc f0bd 2ca0 2bbd 5072 94bb
00000160: 2659 ddbc 4321 03bd a4eb f33d 70d2 c23d
00000170: f647 78bd b7c0 ef3c a8fa c2bd edfc 0b3d
00000180: dbaa c13c 6908 9e3d 023c 913d a6f6 f6bd
00000190: e810 273d fee8 3c3d a2ab 8dbc 18c3 353d
000001a0: 2b3f 8fbd f0ed 743c 13ba 1abd 051c 2c3d
000001b0: 663d 3b3d c9d9 e2bd e49e 253d 4ffa d53b
000001c0: aba5 533d 4a81 f03c 787b a13d 9396 1f3e
000001d0: eb2a aa3c c9b4 a1bd e390 04bc 7744 69bd
000001e0: 0172 aebd 3d8d 13bc 5eb5 0f3d d42c e13d
000001f0: 8fa5 3d3d a7e7 b6bd 367e 9abc 6df2 ecbd
00000200: 7386 213d 4537 783d 0a7f fbbd 47ca e83c
00000210: 9a88 f63d 6d6d 313d d6b6 39be e975 b03c
00000220: b2d8 4d3c 1f6a e03d 7939 0c3d 254f 23be
00000230: 3247 59bd 0562 3c3d 0e5d 67bd 30bf 2abc
00000240: 7a11 3cbd 106e 813d 32f6 70bd 514f efbb
00000250: b844 bf3d d362 5dbd e1b2 b4bc 423f f93b
00000260: 3895 ab3d 3cdc 253d 57cf 4d3c 9507 523d
00000270: 1bf9 b03d 39d6 03bd 4fa4 41be ae13 163d
00000280: 607e 13b9 f3e1 03bd 97bd 4abd b632 27be
00000290: 1527 35bb d50c b6bd 7dca 87bd 5f21 93bd
000002a0: 39f5 eabd 2f67 e83c 7264 b13d 666c 44bd
000002b0: c304 25be 04f3 a63d 13b9 973d 373b 23bd
000002c0: a505 66bd 8361 843d 95d4 45bc aaa1 23bd
000002d0: ebf3 da3d 6287 2e3d 9da2 0abc acc8 643c
000002e0: 7e2e abbd 4e78 c6bc 8292 c53d 4482 9b3c
000002f0: 4169 4e3d b06a b8bd 4221 3bbe 0ef0 70bc
00000300: 2105 b03c e6c6 39bd becf 19bd b962 00bc
00000310: 29e8 86bd 6086 7abd 847b 12bd 8cb7 e9bd
00000320: e5ac c63c e98c 053c 09b0 d4bd a97d df3d
00000330: 407d 06bc db00 50bb dfba 0abe ee9a 01bc
00000340: 85b3 bcba 38b7 0cbb fd54 1ebd df47 50bc
00000350: 02a8 cbbd 1b79 ff3d 5fc7 833d ca86 93bd
00000360: 253f 3abd 8ffc 1bbd cf22 983d cabc 803c
00000370: 4da9 8dbd 1312 da3b 1cdd dc3d 49bd 94bd
00000380: aa35 cebc 6eb6 43bd 7ae2 06bd 95f0 193d
00000390: 9c9d 00bd e42c 8bbd 08a5 553d e71a bc3d
000003a0: 6e18 a3bd 202b 513d 29fc 38bd ba1c b1bd
000003b0: 77b6 803d bbad 593d 8feb 8c3d e1d1 41bd
000003c0: 8c51 333d 25c5 a238 57e7 7dbc 6c37 9bbd
000003d0: dc52 3abc 2a02 a43c cf6e 4dbd b155 423c
000003e0: ca86 17be 0488 29ba feec 70bd 6a80 bb3d
000003f0: f2b1 62bb 8cf5 25bd 9056 903c 01da f93d
-0.04766563 -0.07929608 -0.13534209 0.044514045 -0.027916621 -0.10680398 -0.010817537 -0.025555193
-0.17147264 -0.06393522 0.11200567 0.03167172 -0.025741177 -0.11346229 0.03660387 0.108131655
0.048807826 0.019699395 0.03655645 0.10720245 0.030425759 -0.013392512 0.04814802 0.0050528445
-0.0048976457 0.036817703 0.050809447 0.05223629 0.0306138 -0.04691346 0.012879309 -0.16129883
0.025152197 0.03985368 0.11898042 0.06432611 0.020841524 -0.10904918 0.13415769 0.0633439
-0.15630995 -0.013131896 -0.01618267 0.0384157 -0.002838675 -0.03255941 -0.14921926 -0.027098045
0.03164584 -0.0807789 -0.09070233 -0.063057035 0.053949825 -0.037498087 -0.11214364 0.07181806
-0.076667495 0.094195955 -0.11385255 -0.0912715 -0.17228295 0.05733882 0.009919566 0.014098091
-0.080663204 -0.15361449 -0.035952587 0.031630863 0.043254238 0.006404576 -0.094585285 0.07739797
0.009338275 -0.050237145 -0.073387265 -0.0649015 0.007926608 -0.12408771 0.061370876 -0.10950105
-0.03955051 -0.11298107 0.053811513 -0.022637757 -0.08209372 -0.117607825 -0.0419008 -0.0045302287
-0.027020048 -0.032014143 0.11910179 0.09512794 -0.060615502 0.029266698 -0.09520465 0.034176756
0.02364104 0.07716448 0.07091524 -0.12058763 0.040787607 0.046120636 -0.017293755 0.04437551
-0.0699447 0.014949307 -0.03777511 0.04201891 0.04571285 -0.110766955 0.040434733 0.0065300833
0.051671665 0.029358525 0.07884878 0.15584783 0.020772418 -0.0789581 -0.008091184 -0.05695006
-0.08517838 -0.009005842 0.035085075 0.109948784 0.046300467 -0.08930903 -0.01885901 -0.115696765
0.03943486 0.060599584 -0.1228009 0.028416766 0.120377734 0.043317247 -0.18136153 0.021540599
0.012563871 0.10957741 0.034234498 -0.1594816 -0.053046413 0.045991916 -0.05648523 -0.010421559
-0.045915104 0.06319821 -0.05882854 -0.0073031564 0.09339279 -0.054049324 -0.022057952 0.007606418
0.083780706 0.040493235 0.012561641 0.051276762 0.08641263 -0.03218672 -0.18910335 0.03663986
-0.00014066091 -0.032197904 -0.049497213 -0.16327938 -0.0027641703 -0.08889166 -0.066304184 -0.071840994
-0.11472554 0.028369514 0.086617365 -0.04795494 -0.16115098 0.0815182 0.07408347 -0.039851394
-0.056157727 0.064639114 -0.012074609 -0.039949097 0.10691055 0.04260958 -0.008461622 0.0139638595
-0.08358477 -0.024227288 0.09647085 0.018983014 0.050393347 -0.09004724 -0.18274406 -0.014705671
0.02148682 -0.0453557 -0.037551634 -0.007836037 -0.0658725 -0.061163306 -0.035762325 -0.11411962
0.024252364 0.008151271 -0.103851385 0.1091264 -0.008208573 -0.003173879 -0.13547848 -0.007910473
-0.0014396763 -0.0021471512 -0.03865527 -0.012712448 -0.09944154 0.12474271 0.064345114 -0.07203443
-0.045470376 -0.038082656 0.07428514 0.015715022 -0.06917057 0.0066549866 0.10784361 -0.07262666
-0.025172073 -0.0477814 -0.03293083 0.037582953 -0.031400308 -0.067956716 0.05215934 0.09184819
-0.07963644 0.051066518 -0.045162354 -0.08648057 0.062848024 0.053144198 0.06880867 -0.047319297
0.04377894 7.761483e-05 -0.01549705 -0.0757893 -0.011372294 0.020020563 -0.050154503 0.011861251
-0.14797512 -0.0006467106 -0.058819763 0.091553524 -0.0034590927 -0.040517375 0.017619401 0.12199784

fc2.bias f4 [32]
00000000: e23a ce3d ea4f 5dbd 0c8a 55bd d55e 123c
00000010: 3bd6 11bd fcbb 13bd 9934 c8bd 9e6e 0dbd
00000020: d877 e8bd a6bc eabd fa14 1c3d 9a65 163b
00000030: 8ce6 8ebc 51e4 0c3d 7675 1a3c 462b a93d
00000040: f896 ddbd 9307 963d 2ee6 2bbd d699 61bc
00000050: be6d d53d aa4e 2c3d 89be d2bd 8a7e 72bd
00000060: c694 5cbc a83f 5b3c 1f35 7ebd f299 6cbd
00000070: b7a3 cebd 7569 aa3d 28a2 e43d 9418 09bd
0.10069825 -0.05403129 -0.052133605 0.0089337425 -0.035604697 -0.036067948 -0.09775657 -0.03452932
-0.113509834 -0.11461763 0.038105942 0.0022948743 -0.017443918 0.034397427 0.009427419 0.08260207
-0.10819811 0.073256634 -0.041967563 -0.0137695875 0.10421322 0.042067207 -0.10290248 -0.05920271
-0.013463205 0.013381876 -0.06206238 -0.057764 -0.1008982 0.083208956 0.11163741 -0.033470705

bn2.weight f4 [32]
00000000: 19ec 5e3f 59ff 763f 3ef2 6d3f bfad 673f
00000010: b979 733f abc6 673f 8471 5d3f db62 5e3f
00000020: ec43 763f 844e 6b3f a419 703f bc19 6c3f
00000030: c28f 643f bf21 703f eab9 703f de82 7d3f
00000040: 1a80 663f 5410 653f 57a0 703f 77f7 6f3f
00000050: ae45 693f 07ec 7c3f bfff 643f 89e1 7b3f
00000060: a37a 6d3f bb0b 7e3f d531 663f 69d8 6c3f
00000070: 75a8 5f3f 43df 733f b6fd 723f 49f8 723f
0.87079006 0.9648338 0.9294776 0.9049949 0.9510761 0.9053752 0.86501336 0.8686959
0.9619739 0.9191668 0.93789124 0.9222677 0.89281857 0.9380149 0.9403368 0.9902781
0.9003922 0.8947804 0.9399466 0.93736976 0.9112195 0.9879765 0.8945274 0.98391014
0.92765254 0.9923665 0.8991979 0.92517716 0.8736642 0.95262545 0.9491838 0.94910103

bn2.bias f4 [32]
00000000: e66d d5bd bec3 8b3c 547e 17bd 9268 abbd
00000010: 3990 aa3b a6f7 a0bd e723 edbd 20e0 e2bd
00000020: a36b 583a 54d4 83bc 8214 71bc e02e 45bd
00000030: 160d a5bd b666 dcbc 31a4 06bd db30 d73c
00000040: 5029 6cbd 8c8b aebd a9f7 ddbc 2972 d6bc
00000050: 2af6 a4bd 70c7 a53c 06da b2bd 5271 0b3d
00000060: a667 8dbd 23d6 29bb 70d5 6fbd 8b86 9ebd
00000070: d5ee a4bd 0f00 4ebd 0be0 0e3c 3b10 cabc
-0.10421352 0.01706111 -0.03698571 -0.083695546 0.005205181 -0.07859735 -0.115791135 -0.11077905
0.0008255785 -0.016092457 -0.014714362 -0.048140407 -0.080591366 -0.026904445 -0.03287143 0.026268413
-0.057656586 -0.0852271 -0.027095633 -0.026177483 -0.080547646 0.0202367 -0.08732991 0.034043618
-0.06904535 -0.002591499 -0.05855316 -0.07740506 -0.08053366 -0.050293025 0.008720408 -0.024665942

bn2.running_mean f4 [32]
00000000: 0244 0cbe 28be acbe e5d9 c6be 2d3e 50be
00000010: 2a33 86be 7497 adbe 484f c2bd de35 94be
00000020: 1661 e4be c9c4 0dbd ad7d 3fbe 24d4 46be
00000030: b118 9a3e f86f 09bf 386c ccbe 98ec dd3d
00000040: 4f09 c6be 44b7 61be 04a5 8ebe 732c 34be
00000050: c77d ce3d 9bd0 45be 4ec7 a7bd afc9 a1be
00000060: 41bb b7be bedd a0be 818d f43e b33b b3bc
00000070: 090e 93be 3ba0 eabd 32c6 94bd c7b0 adbe
-0.13697818 -0.33738828 -0.38838115 -0.20336218 -0.2621091 -0.33904612 -0.09487778 -0.28947347
-0.4460532 -0.034611497 -0.18700285 -0.19416863 0.30096963 -0.53686476 -0.39926314 0.10836142
-0.38678977 -0.22042567 -0.27860272 -0.17595081 0.10082584 -0.19317858 -0.08192311 -0.31599185
-0.3588505 -0.31419176 0.4776421 -0.021879053 -0.28721645 -0.11456343 -0.07264365 -0.33923933

bn2.running_var f4 [32]
00000000: 9284 2b3f 6e9f 463e 224e f93e 947c ec3e
00000010: 8aa4 bb3e ef74 243f fa39 9d3e 1d66 a93e
00000020: e53f ec3e cdee d03e acb2 b93e d406 b93e
00000030: 5298 093f 5b50 293f 10ba 063f 3240 a53e
00000040: 5535 ee3e 0f80 df3e 4a27 eb3e 92e1 a33e
00000050: 57e7 993e de22 b63e dc6c 903e d75c 9c3e
00000060: 271b 053f d6b7 d83e f2a6 023f bd3c ba3e
00000070: 6beb c73e 1429 b33e 99df fc3e 3bf4 8d3e
0.6699916 0.19396755 0.48692423 0.46188796 0.3664897 0.64240927 0.30708295 0.3308572
0.46142498 0.4080719 0.36269128 0.36138022 0.5374805 0.6613824 0.5262766 0.3227554
0.46525064 0.43652388 0.45928413 0.32008034 0.3005931 0.35573477 0.28208053 0.3053958
0.51994556 0.42327756 0.5103599 0.36374465 0.39046797 0.34992278 0.4938934 0.27725396

fc3.weight f4 [1, 32]
00000000: 60f7 a2bb a0e0 f93a c469 903a a03e 1cbb
00000010: 35a3 d03a 6c4a a43a 0fe0 54bb 67a5 d239
00000020: 7abe 3a3a 6e71 643b d2c8 cc39 f7fc 313b
00000030: 24c6 79ba 283e 933a e809 42bb a044 233a
00000040: c2de 763a 9b41 f0ba ee8a 053b 2069 493b
00000050: 6b8d 0fbb 6679 9c3a 7b01 0abb 8ff1 993a
00000060: 9539 1ebb e339 8b3a 0c4d f8ba 324f e538
00000070: 9509 f7ba af21 e63a 4fd4 d93a f4a9 c238
-0.004973337 0.0019064136 0.0011017849 -0.0023841038 0.001591778 0.0012534386 -0.0032482182 0.00040177556
0.000712372 0.0034857648 0.00039059535 0.0027158835 -0.00095281214 0.0011233734 -0.0029607955 0.00062281825
0.0009417349 -0.0018330099 0.0020376998 0.0030732825 -0.002190436 0.0011938035 -0.0021058011 0.0011744964
-0.0024143208 0.001062211 -0.001894386 0.00010934322 -0.001884746 0.0017557646 0.0016619059 9.282297e-05

skip.weight f4 [1, 35]
00000000: 3206 21bd 2088 7d3d e5ae 5a3d 9071 97bd
00000010: 6371 51bd 3740 f33c 693d 9fbb 8797 23bd
00000020: eb8c 073e bd12 d7bc d074 6fbc 6d42 623e
00000030: be52 62bc eab3 243e d9e5 07be 421b fcbd
00000040: 5827 9e3a 08c4 33bb bc3e 5abd 751f b0bc
00000050: d6f1 a63d 54b7 ef3d 2ffe fcbd 1b2e 013e
00000060: a504 50bd 3e60 003d 915a 32bc 37b5 083c
00000070: c63d 00bd e052 37bc ef35 de3d cc6c 98bc
00000080: 3b36 edbd 3b6d 2abd ff8f d93d
-0.03931255 0.061897397 0.05338945 -0.07394707 -0.051133525 0.029693706 -0.0048596156 -0.03993943
0.1323735 -0.026254052 -0.014615253 0.22095652 -0.013813673 0.16084257 -0.13271274 -0.123098865
0.0012066169 -0.0027430076 -0.053282484 -0.021499375 0.08151595 0.11704889 -0.12353169 0.12615244
-0.05078568 0.031341784 -0.0108858505 0.008343986 -0.03130891 -0.0111891925 0.10850131 -0.018606566
-0.11582609 -0.041608077 0.10623168
