models/mlp_XLK_20260130.pt (torch, 28387 bytes, 18 tensors)

bn_input.weight f4 [35]
00000000: e17e 6b3f 49c8 6a3f 55a2 723f 21ba 6a3f
00000010: 0a0e 7a3f 69fd 673f 53f3 6e3f e92a 753f
00000020: db80 693f 4fd0 753f e630 723f 904d 763f
00000030: d02f 753f 2d26 7a3f 1793 843f 1952 7e3f
00000040: 27f0 993f 34ec 853f b55d 6b3f 57cc 803f
00000050: e0ea 823f 0f24 733f 9ff0 7d3f b2a9 5c3f
00000060: 27de 7d3f 4626 5f3f 8360 633f 30e4 6e3f
00000070: 6798 6b3f 510c 783f a824 673f 914c 693f
00000080: a4c5 773f 6807 7f3f 44f7 733f
0.91990477 0.9171186 0.9477895 0.9169026 0.9767767 0.9062105 0.93340033 0.957686
0.9121224 0.9602098 0.94605863 0.962121 0.9577608 0.977145 1.0357388 0.9934402
1.2026414 1.0462708 0.9193986 1.006236 1.0227928 0.94976896 0.99195284 0.86196434
0.991671 0.87167776 0.8881914 0.93316936 0.9202942 0.96893793 0.9029031 0.91132456
0.9678595 0.99620676 0.9529917

bn_input.bias f4 [35]
00000000: 074a 95b9 7f9b c4b9 00aa 48b9 7adc 8839
00000010: 13f3 4eb8 7d82 5aba f528 73b9 766c 7637
00000020: a711 1239 f366 8ab9 aefc 0aba 8f77 ff38
00000030: fcdc bab8 2196 f337 a1d6 31ba 6aac f5b9
00000040: 1822 8e39 f2b1 b6ba 8304 c6b9 330a 2eb9
00000050: be4e 5db9 1d9d 103a 1a9d 1a37 c93a 04ba
00000060: 0f50 1839 bec9 4a38 18a9 d5b8 84c9 6338
00000070: 2f9e 1e3a d3df 0f39 c384 9b38 9057 3f39
00000080: 6f43 103a c1ad 37ba 3827 7c3a
-0.0002847465 -0.00037499887 -0.00019136816 0.0002610421 -4.9340608e-05 -0.00083354843 -0.00023189544 1.4687996e-05
0.00013930221 -0.00026398114 -0.00053019344 0.00012181617 -8.910333e-05 2.9037767e-05 -0.00067839964 -0.000468585
0.00027109752 -0.001393853 -0.00037768864 -0.00016597733 -0.00021105536 0.0005516576 9.215693e-06 -0.000504416
0.00014525674 4.834844e-05 -0.000101881276 5.4308694e-05 0.0006050793 0.00013720924 7.415705e-05 0.00018247799
0.00055032125 -0.00070067873 0.0009618881

bn_input.running_mean f4 [35]
00000000: 3607 9f3b efcb 103c 4e5b 813c 1e2d 2d3d
00000010: 101f 8d3b b42f ff3b 4e85 613c 687f 143d
00000020: 9a5e 663c 6ef7 693c 91c4 6c3c d6c8 703c
00000030: 7fb3 113b 04fe 873b 4da2 f93b 423c a23c
00000040: 3fe3 5c42 9117 5a42 3288 6e3b 0b20 603b
00000050: 8e82 6639 3457 33bd 0541 673d 7c4e ce3d
00000060: 2284 a13c fe9f 7f3f 6267 1d3d e31c 153f
00000070: 2d97 1a3f faef 1f3f 8dac 263f 3607 9f3b
00000080: efcb 103c 4e5b 813c 1e2d 2d3d
0.0048531545 0.008837684 0.015790608 0.042279355 0.0043066815 0.007787669 0.0137646925 0.036254317
0.014060641 0.014280183 0.014451162 0.0146963205 0.0022232232 0.004150154 0.0076182247 0.019804124
55.22192 54.523014 0.0036397097 0.0034198787 0.00021983145 -0.043784335 0.05645849 0.100735635
0.019716326 0.99853504 0.03842867 0.582472 0.60386926 0.6247555 0.6510704 0.0048531545
0.008837684 0.015790608 0.042279355

bn_input.running_var f4 [35]
00000000: 1e4e 893a 120c 013b 52bc 793b 2af4 303c
00000010: b35a 893a 9441 013b c0ec 773b 6379 2a3c
00000020: e54e 5d38 c1fc 1c38 17d3 f937 5985 c637
00000030: 2101 8839 c9e5 163a e34b 9a3a 7502 593b
00000040: 9f70 8a43 0199 0943 c91b 6e39 a8e4 5039
00000050: 290b c137 0ead f63a 90d8 a83a ba08 c83a
00000060: 44de 4038 4898 f23d 8e05 f63d 4df2 d93d
00000070: d0a7 d53d 0a22 c83d bc35 bb3d 1e4e 893a
00000080: 120c 013b 52bc 793b 2af4 303c
0.0010475551 0.0019691032 0.0038106632 0.010800401 0.0010479301 0.0019722925 0.0037830323 0.010404917
5.2763982e-05 3.7428694e-05 2.978141e-05 2.3665534e-05 0.00025940783 0.00057562866 0.0011771884 0.0033113037
276.87985 137.59767 0.000227078 0.00019921607 2.301259e-05 0.0018819885 0.0012881923 0.001526139
4.598337e-05 0.118454516 0.12012778 0.10641918 0.10432398 0.097721174 0.091411084 0.0010475551
0.0019691032 0.0038106632 0.010800401

fc1.weight f4 [64, 35]
00000000: 751e 38be bbdf f93c dfd8 88bd 5975 003e
00000010: cd44 bdbb 9f67 af3c 6554 233e 8088 53bd
00000020: a016 fb3c 54c2 03be 358c bf3d f7e4 17be
00000030: ca2d 8d3d dd21 0fbe 27b1 343e d6ba ed3d
00000040: ff97 0d3e 0996 9f3d c2e9 d9bb cc55 0dbe
00000050: 5c9c ce3d 3a05 b8bd 5534 143e e21e f23d
00000060: 374e 0fbd 1c99 0bbd 84ef debd 9332 193e
00000070: 146d c1bd 1ebc c93d d73e d2bd ba22 de3d
00000080: 68de 103c 0463 0bbe ffc0 0ebd 3574 913d
00000090: 65b7 b6bd 8618 adbc d817 113e 581f f0bd
000000a0: 3b6b 213d 4cc6 7e3d 82ed 883d 4d9f 08bd
000000b0: efa6 543d eadd e7bb de9d 9bbd 12de 943c
000000c0: 2899 55be 65bb 093e 66f0 7dbd 9195 1f3e
000000d0: 6523 3bbe 424f 03be 4b79 523d e099 2e3e
000000e0: 1481 92bc ac95 da3d 3c92 663d b24c ae3d
000000f0: 4fbd ba3d 145b 023e fa8f b33d a7a7 2dbe
00000100: 3f2f b9bd 4998 ef3d c14d 3bbd 154c e83d
00000110: 05e7 da3d c95a 1ebe c617 f5bd 91f9 c23d
00000120: dd0a a238 8b78 26bd e904 e03c 3a69 5abd
00000130: 116f d3bc 82c2 303d e9a4 acbd 0c05 303d
00000140: 3524 babd dcbd 7e3d 34f2 053e 31ba 88bd
00000150: cd10 99bd 08e1 0f3e 4b53 8cbe 4640 91bb
00000160: 0fe9 9d3d cfc6 1c3d df75 603d 8060 3cbd
00000170: 4561 c93d c9cf f23c 7642 36be 52f1 8f3d
00000180: 6018 60bd 8831 c5bc 1507 0e3e 2534 f03d
00000190: c502 52bd 0749 0ebd e72b 83bd 11d3 99bd
000001a0: 9aaa 1abc 10c6 033e 96d5 033e 2726 06bd
000001b0: bb6b 43bd 4595 a1bd bdb7 a2bd 98e7 cfbd
000001c0: 2cbf 6d3c 2807 dbbd 416b 8cbd a40c a43d
000001d0: 171b 583d c098 40bc 9975 243d 58a8 0dbe
000001e0: 1f1c 053e cf7b 52be 5fa2 2e3d 07a3 f2bd
000001f0: c261 293e 43ac 12be 22a2 fd3d 90f6 303e
00000200: e7a6 4dbd d5f8 45bd 7ea9 57bd 2a0d b23d
00000210: 9935 263b bfc8 3ebd 21ed 30bd c017 6ebd
00000220: 9180 843d 4e5b 203e 8be2 9b3d 1117 0dbe
00000230: 2d65 acbd adad ea3c 02f2 13be 48b5 1a3e
00000240: e98d 913c fb59 1c3e b101 17bb 1635 90bd
00000250: 9c1f 9dbd cd15 c8bd 1ba4 1e3d fbbf b33d
00000260: 7c89 f7bd e9b8 023e 4d87 193e 4bd1 a33c
00000270: 9560 b53b 9dc0 18bd 189d ae3d 1fe5 30be
00000280: d9ac 6e3d 5497 a73d 595b 0d3d 91de 803d
00000290: c3e4 a8bd ac22 543d 13ab 1ebe da10 76bd
000002a0: b3b8 16bd 172a fa3d 6412 833d 9a83 ff3d
000002b0: ca75 083e 5715 febd 7178 87ba c112 c13d
000002c0: cc7e a4bd b3d9 33be 9eff 7abd 04af a43d
000002d0: 88f7 04be 502d 7c3d 45bb ecbd 9fe5 e63d
000002e0: 6192 14be 9aae 07be 30af b73d 0928 f23d
000002f0: 3237 4dbd 0077 dfbd f7e2 5d3d 478d d2bd
00000300: f124 aebd 1f97 0fbc 3936 bfbd a0a7 04bc
00000310: 47cb b33d 770d f2bd 3674 2f3e c6c6 4e3c
00000320: 21a1 d2bd 2549 cdbd 8d5f 023d aeb6 0b3e
00000330: 4a12 ddbd ef07 9fbd 0b76 143e aa78 4f3d
00000340: 7a56 d2bc 706b ebbd 12dc a4bd 4a7c b83d
00000350: f965 fc3d ef68 1fbe 6cd1 88bd 35da 07be
00000360: f4b4 843d 3b39 e83d 0f3d 05be 165a 153e
00000370: 99d0 9b3d 12d7 e13d 93b5 17be 944d f73d
00000380: f6cf f1bd 3068 1abe 9ee9 f83d 258d 54be
00000390: 3267 d83d 3be0 233d 3c66 b03d b7f6 64bd
000003a0: 37d8 8abd 7a2c 48bc c410 d3bc 1ec6 cebd
000003b0: cfac 943d a834 38bd 1fd3 c53d 2cfc fabd
000003c0: 1616 913d 6e25 f33d 0d38 2c3e 00ad f43d
000003d0: e5d9 16be 2b71 1f3e c7c0 f73c 9594 ccbc
000003e0: c600 02be e63c 9abd fe2c 34bc 871f 303e
000003f0: 38ae 5cbc 408b 143e 813f 09be 2197 31bd
-0.17980368 0.03050219 -0.0668199 0.12544765 -0.005776024 0.021411715 0.15950163 -0.05164385
0.030650437 -0.12867099 0.09352914 -0.14833437 0.06893499 -0.13977762 0.17645703 0.11607902
0.13827513 0.07792289 -0.0066501806 -0.1380226 0.10088417 -0.08985372 0.14473088 0.11822297
-0.0349867 -0.034081563 -0.10885528 0.14960699 -0.09444633 0.09850334 -0.10265892 0.10846467
0.008842088 -0.1361199 -0.034852024 0.07102243 -0.089216985 -0.021129858 0.14169252 -0.11724728
0.039408904 0.06220083 0.06685926 -0.033355046 0.051917013 -0.0070760148 -0.0759847 0.018172298
-0.20859206 0.13450392 -0.06199684 0.15584399 -0.1827522 -0.12823203 0.051385205 0.17050886
-0.017883815 0.10673079 0.056291804 0.08510722 0.09118139 0.12730056 0.08767696 -0.16958486
-0.090422146 0.11698968 -0.04572845 0.113426365 0.10688595 -0.1546432 -0.11967425 0.09520257
7.7267854e-05 -0.040642302 0.027346091 -0.053323008 -0.025809797 0.043154247 -0.084298916 0.042973563
-0.09088937 0.062192783 0.13080674 -0.06676138 -0.074739076 0.14050686 -0.27407297 -0.004432711
0.07710468 0.038275536 0.05479991 -0.045990467 0.09833006 0.029640095 -0.1779879 0.0702845
-0.054710746 -0.02407147 0.13869889 0.11728696 -0.051272172 -0.034737613 -0.06404858 -0.07510961
-0.009440089 0.12868524 0.12874445 -0.03275123 -0.04771016 -0.07889799 -0.079452015 -0.10151595
0.014510911 -0.10694724 -0.068563946 0.080102235 0.05276021 -0.011755168 0.040151212 -0.1383375
0.12999009 -0.20555042 0.042635318 -0.11847501 0.16541198 -0.14323525 0.1238444 0.17281556
-0.050208 -0.048333008 -0.052651875 0.08693917 0.0025361537 -0.046578165 -0.043194894 -0.05812812
0.064698346 0.1565983 0.07611569 -0.1377833 -0.08417735 0.028647268 -0.14447787 0.15108216
0.017767863 0.152687 -0.002304178 -0.07041375 -0.07672045 -0.09769783 0.038730722 0.08776852
-0.1208677 0.1276585 0.1499302 0.01999726 0.005535195 -0.037293065 0.08526057 -0.17274903
0.05827031 0.081831604 0.034510944 0.06292451 -0.08246758 0.05179088 -0.15494947 -0.060074665
-0.036797237 0.12215059 0.06399992 0.12476273 0.13326183 -0.12406414 -0.0010335577 0.09427405
-0.08031997 -0.17563514 -0.06127893 0.08041194 -0.1298505 0.06156665 -0.11559156 0.112742655
-0.14508964 -0.13250199 0.08968961 0.11824042 -0.050101466 -0.10911369 0.05417153 -0.10280853
-0.0850314 -0.008764057 -0.09336514 -0.008096606 0.087790065 -0.118189745 0.17134175 0.0126206335
-0.10284639 -0.10023717 0.031829406 0.13643906 -0.10794504 -0.07765185 0.14498155 0.050652184
-0.025676 -0.114951015 -0.080497876 0.09008081 0.12324137 -0.15567373 -0.06680569 -0.13266833
0.064798266 0.11339041 -0.13011573 0.14585146 0.07608146 0.110273495 -0.14815359 0.12075344
-0.118072435 -0.15078807 0.12153934 -0.20756967 0.10566558 0.040008765 0.0861325 -0.055899348
-0.06779521 -0.012217635 -0.02576483 -0.100963816 0.07259523 -0.044972092 0.09659409 -0.12255129
0.07084291 0.118723735 0.16818257 0.1194706 -0.14731558 0.15570514 0.03024329 -0.024973193
-0.12695608 -0.07531147 -0.010997055 0.17199527 -0.013469271 0.14506245 -0.13403131 -0.04335702

fc1.bias f4 [64]
00000000: f9bd 943d 185b 823c b996 06be cecc 33bd
00000010: b39f 173e 5d18 c6bc cb17 12bd 1210 36bd
00000020: 62bb 8a3c 5559 d63d 2743 dabd 44f4 0e3e
00000030: 2dfa b5bc 3665 a7bd e28b 283e cd3c 90bd
00000040: 73e0 4bbd 382d 21be c764 7ebc e07c 27bd
00000050: 1b55 d1bd 14e3 0cbe eed6 02be bad7 6a3b
00000060: 76f9 82ba 2bf1 183e ca8b 233e a2d2 c83d
00000070: 9a0f e43d 890a e03d e7ba d43d d3b8 70bd
00000080: 05ac 0c3e 4472 efbd f82a a83d fd5b 0abe
00000090: dc2d 05be f4a7 f0bd dedb 50bc 5271 bc3d
000000a0: b0c1 c4bd 4f6e 8dbd 8651 f9bd 9138 81bd
000000b0: 75c2 c2bd 046a 023e e3cd 8abd 77a1 123e
000000c0: 41ff 653d f07f 3fbd 29e7 033d 22ea f93c
000000d0: 8f9f 6d3d 267a 213e ea58 223e 9f0f b0bd
000000e0: 6d9b 2ebc 0c0f 963d 77f4 d33b bff4 323d
000000f0: d58b 1b3e fd2d 253e 77da ea3d 3669 103d
0.07262797 0.015912578 -0.13143434 -0.04389649 0.14807014 -0.02418154 -0.035667222 -0.04444892
0.016935054 0.104662575 -0.106573395 0.13960367 -0.02221402 -0.08173601 0.16459611 -0.07042847
-0.0497746 -0.15739906 -0.015526957 -0.040890574 -0.10221311 -0.13758498 -0.12777302 0.003583415
-0.0009992558 0.14935748 0.15971294 0.098058 0.11135788 0.109395094 0.10387211 -0.058770012
0.13737495 -0.11691716 0.08211321 -0.13511653 -0.13005775 -0.117507845 -0.012747733 0.09201302
-0.096072555 -0.06905805 -0.121737525 -0.06309617 -0.09509746 0.12735754 -0.06777551 0.14319406
0.056151632 -0.04675287 0.032202873 0.030507151 0.058013495 0.15769252 0.1585423 -0.085967295
-0.010657174 0.07327089 0.0064683515 0.04369044 0.1519006 0.16130824 0.1146745 0.035256587

bn1.weight f4 [64]
00000000: 06f1 7c3f 56c1 773f 34f2 803f f346 823f
00000010: 11d3 753f c6ad 6e3f 75c1 7e3f fa45 7c3f
00000020: ace1 843f bee5 7e3f 9e59 833f 7bfa 7b3f
00000030: 903a 743f a0f9 793f 8aa0 7a3f 5fc2 733f
00000040: 82e6 783f 248a 6d3f f9c1 763f f074 773f
00000050: 5dd4 7f3f d888 803f 2c19 7e3f ef80 6c3f
00000060: 4063 7c3f 35bd 753f 88bd 853f 052c 783f
00000070: 5ef3 763f 4345 833f eb49 733f 67f4 7c3f
00000080: 1ed4 7f3f aa81 7e3f 9975 833f 771f 733f
00000090: f06f 7b3f 5f72 703f 7a34 7c3f 48ad 7d3f
000000a0: ca41 803f 5e0d 783f 8384 833f 4ae6 7b3f
000000b0: 8e0c 813f 437f 823f dd6e 7e3f 9998 703f
000000c0: e5da 703f 1bd5 803f 8914 6f3f 8398 733f
000000d0: e3af 733f 9798 7f3f 7f7c 823f c9c8 813f
000000e0: 5603 833f 8e75 7a3f 6abb 813f 2c8b 843f
000000f0: e4e4 763f 4d72 843f 20fe 7e3f cb68 813f
0.9880527 0.9677938 1.0073915 1.0177902 0.96025187 0.9323391 0.9951394 0.98544276
1.038137 0.9956931 1.0261724 0.9842908 0.9540186 0.9764652 0.97901213 0.9521846
0.97226727 0.9278891 0.9638973 0.9666281 0.99933416 1.0041761 0.9925716 0.9238424
0.98588943 0.9599183 1.0448465 0.9694217 0.964651 1.0255512 0.95034665 0.9881043
0.9993304 0.994166 1.0270263 0.94969887 0.9821768 0.93924516 0.9851757 0.9909253
1.0020077 0.96895397 1.0274814 0.9839827 1.0081956 1.0195087 0.99387914 0.93982846
0.94084007 1.0065035 0.9339071 0.9515459 0.95190257 0.9984221 1.0194243 1.01394
1.0235393 0.97835624 1.0135319 1.0354972 0.9644301 1.0347382 0.99606514 1.0110105

bn1.bias f4 [64]
00000000: ab49 aa3b 890d 033c 36b9 433c 74e2 d43c
00000010: a142 323c d3b1 81bd fee6 433b 1ac7 84bc
00000020: ef77 a53d da6f 583c d47d dabb d67d cf3c
00000030: 8d64 dbbc 6278 18bd 2daf b33b b7a2 e5bb
00000040: aa38 d1b9 6ab8 e7bc d89b 1bbd b3c8 cdbc
00000050: 7f39 23bd 1abe 41bd d0e2 a3bb 1881 aebd
00000060: 06ba a5bc 5e62 07bd 035c 8b3d 6f04 18bb
00000070: 45cc 4dbc 0d9f 3e3c 0734 4fbd e0c5 6cbc
00000080: c408 9bbb bb9c 06bd a746 7b3c f0e8 72bc
00000090: 9d83 743c 87ef 4fbd 1915 5dbc 5ef9 82ba
000000a0: 00ce 9f3c 8cba 90bc eda7 e73c d09d 8fbc
000000b0: 70fc 083d 1d20 193d be24 cdbc c3ff 22bd
000000c0: 7127 03bd ade9 f2bc bb07 41bd 6ae5 79bc
000000d0: 33a2 11bd 409e c93c 7fa0 1d3d b50b 76bb
000000e0: da36 c03c 2a6f a5bc ce2b 403d 5b6b 863c
000000f0: c00c e9bc b9f9 253d 06ee 99bc 7c64 4ebb
0.00519677 0.0079988325 0.011946013 0.025986888 0.010880143 -0.063327454 0.002989232 -0.01620822
0.08079516 0.013210261 -0.006667832 0.025328558 -0.026781345 -0.03722418 0.005483529 -0.0070079225
-0.00039905804 -0.028286178 -0.03799042 -0.025120115 -0.039849754 -0.047300436 -0.0050014034 -0.085207164
-0.020230304 -0.033052795 0.06804659 -0.0023196002 -0.012560909 0.0116346 -0.050586727 -0.014451474
-0.0047312696 -0.032864314 0.015336669 -0.014826044 0.014923957 -0.05076554 -0.0134938 -0.000999253
0.019507408 -0.017667077 0.028278315 -0.017531306 0.03344387 0.03738414 -0.025041934 -0.039794695
-0.032020036 -0.02965244 -0.047126513 -0.0152524505 -0.035555076 0.024611592 0.03848314 -0.00375436
0.023463655 -0.020194609 0.046916775 0.016408613 -0.028448462 0.040521357 -0.018790256 -0.0031492999

bn1.running_mean f4 [64]
00000000: dd1c 943d f7ac 813c 35a1 06be 7b44 34bd
00000010: e1ba 173e e0f1 c2bc f009 11bd 5cb6 36bd
00000020: 2323 893c c21e d63d 32e5 dabd f496 0e3e
00000030: 24d7 b7bc 593f a6bd 08bc 283e f4c9 90bd
00000040: eb4e 4abd 7215 21be f2f7 79bc f625 27bd
00000050: 7c21 d1bd 62c8 0cbe 083b 02be db5d 743b
00000060: b741 6dba 72d1 183e d0f8 223e a5df c73d
00000070: 42ee e43d ac98 df3d c90f d43d be49 6fbd
00000080: f153 0c3e 83bd eebd c392 a73d 8e30 0abe
00000090: c817 05be 2884 f0bd dd98 53bc d4d0 bc3d
000000a0: 122d c5bd e40f 8ebd d112 f9bd 303c 81bd
000000b0: 769b c2bd 65fb 013e 1d81 8bbd a0a9 123e
000000c0: 88bf 643d 0119 40bd 7e35 023d f453 f53c
000000d0: 5237 703d 5b2a 213e a25c 223e d719 afbd
000000e0: 1e55 2ebc 6d67 963d 8d29 cf3b 923a 313d
000000f0: 1474 1b3e 71ec 243e eac4 ea3d 02fe 103d
0.07232068 0.015829546 -0.13147433 -0.04401062 0.14817382 -0.023796976 -0.035409868 -0.044607505
0.016740387 0.10455085 -0.10688247 0.13924772 -0.022441454 -0.08117551 0.16477978 -0.070697695
-0.04939167 -0.15730837 -0.015256869 -0.040807687 -0.10211465 -0.13748315 -0.12717831 0.0037287388
-0.0009050625 0.14923647 0.15915227 0.09759454 0.111782566 0.10917792 0.10354573 -0.058419935
0.13703896 -0.1165724 0.081822895 -0.13495085 -0.12997353 -0.11743957 -0.012914863 0.09219518
-0.09627737 -0.06936625 -0.12161792 -0.06310308 -0.09502308 0.12693556 -0.06811736 0.1432252
0.05584672 -0.046898846 0.031789295 0.029947259 0.058646508 0.15738814 0.15855649 -0.085498504
-0.010640411 0.07343946 0.006322092 0.043268748 0.15180999 0.1610582 0.114633396 0.03539849

bn1.running_var f4 [64]
00000000: 0de8 a53e 6fcd f03d ffbc 923d 879f 473d
00000010: 6a06 d23e 0196 113f e5d1 343e 991f 823e
00000020: ae9a 6b3d d751 de3d 7fa5 af3d f92c 883d
00000030: 00ec 063f 3e15 7e3d 9309 103d b0ed 833e
00000040: b5af 473d 8aa4 713e ecb9 863e 7c94 943f
00000050: 632b 043e 6b88 963d 9112 923d 7c89 163f
00000060: 4885 9e3e 2f49 2a3e 63c3 373d 936d 173e
00000070: 7354 053e 0bb9 653d 58a4 0d3e 31ba b63e
00000080: b115 703d af2f 9d3d e24a 093e b0ba 1b3f
00000090: 1590 803e e5aa 8d3e 24ce b33e 4a13 733e
000000a0: f211 833e 0d26 fd3e 2f80 9c3d 3b9a d23e
000000b0: 7555 553e 598b 913d 232d eb3d 42ed 353e
000000c0: 7a3c e13e 89e1 e33d a31b 1e3e be54 283f
000000d0: cbc3 443f 90ff b03d c20b 2c3d 5bea fd3e
000000e0: 1aa1 053e a975 193e f1cb 103e ac80 243e
000000f0: 2505 423e ef17 6f3e 7543 c33d 2d20 003e
0.32403603 0.11757933 0.071649544 0.04873612 0.4102052 0.5686951 0.17658193 0.25414732
0.05752056 0.108554535 0.08576488 0.06649203 0.5270386 0.062031977 0.03516538 0.2576728
0.04875155 0.23597923 0.26313722 1.1607814 0.12907176 0.073502384 0.071324475 0.58803535
0.3096106 0.1662948 0.04486407 0.14787893 0.13020496 0.056084674 0.13832223 0.35688928
0.058614437 0.076751105 0.13407472 0.6083174 0.25109926 0.27669445 0.3511821 0.23737827
0.2559963 0.49443093 0.076416366 0.41133294 0.2083338 0.071066566 0.114832185 0.17766288
0.43991452 0.11127002 0.1544023 0.65754306 0.76861256 0.08642495 0.0420034 0.49592862
0.13049737 0.1498629 0.14140297 0.1606471 0.18947275 0.23348974 0.09534351 0.12512274

fc2.weight f4 [32, 64]
00000000: 8af4 a3bd 974f d9bd b602 87bd 296d 33be
00000010: 7522 763d 1f4e 563d f624 643d 3bce 28bd
00000020: 0bd2 1ebd 0ea1 f8bc a4d2 e0bd d15b 863a
00000030: 9d2f f1bd 3719 173e a19f 5ebd ee69 843b
00000040: eaa9 073c 8072 9dbd a862 323d 4d41 d3bc
00000050: 2f86 433d 50a1 b63c 5a48 bfbc 52e8 fabc
00000060: 113d 92bd 23db 73bd 6024 d9bd da7f b4bd
00000070: 0864 a0bd 115b febd 5ddd 21bd b187 61bd
00000080: 752a f5bc bf9e ee3d 8dcb 8cbd 628b c73d
00000090: 8db0 c0bc 2dfe bdbd 7cd2 31bd b261 403d
000000a0: a53b b73d ecc6 433d 62f6 db3c 0e77 c43d
000000b0: 8413 df3d 4591 1dbe 2e3d 78bd 9a98 f9bd
000000c0: 2fc4 2dbd 8297 50bd 3568 2e3d 4e04 a5bd
000000d0: 8b22 b53d 4286 14bc 84b8 acbd 6e65 b5bc
000000e0: 3656 fcbd cda5 45bb 5072 62bc bf99 6f3d
000000f0: 3413 d93d a70f d5bd 9e5f 433d a1bd 91bd
00000100: 1def 05be 355c dc3c df89 ddbd 51e9 eabb
00000110: ba44 e73c f5c7 3cbd d77c 0abe f76b 953d
00000120: af9b d23d 76bd b6bc e98c 913c e768 f9bc
00000130: 5b83 a0bc 83e3 59bd 0fc0 af3d 510e b03d
00000140: d0c5 3b3d b6e4 03be 255c c5bd 9bfd 003c
00000150: aa52 f03d 8f3f 70bd ef3d fcbd c9ce a8bd
00000160: 94aa 803a d751 7d3c 9fe1 18bc 1fde d0bd
00000170: 2be7 f1bc 7dd3 ec3b 909b 04bd becd c53c
00000180: 9756 9f3d 1c6d 723d f7c2 043e 873b 383d
00000190: f9ab 8a3c 2f30 b5bd 1ac3 de3b 8da7 5bbb
000001a0: 9550 d4bd b475 113d 3499 dcbd e4ac 5d3c
000001b0: a3db e9bd 7798 d23c 5998 cbbc 1e72 853d
000001c0: 3152 073e b5d0 d9bd 556d 59bd fec0 883b
000001d0: 1766 d53d db39 c3bd b2bf e63d 2b94 fa3c
000001e0: d2cc 023b a4a9 bcbd 1add f33c b781 b53d
000001f0: d06d 263d bd07 ba3d 5eea f9bd 90d1 78bd
00000200: c76b 573d b11b 013b 00fc 8cbd 0190 b3bb
00000210: f62e 25be 56a4 f33d f9ee 52bc c499 bdbd
00000220: 7b69 e9bc 2dc0 aa3c 57b7 d13d 3658 72bb
00000230: 9062 a73d 9abe 2f3d 8adf 94bd dafe 04be
00000240: 15dd 9b3d a7ea 11bc 9623 973c cda5 2dbd
00000250: a3bd 5e3d 1620 5cbd 1f4d debd 2f22 febb
00000260: c607 00be d449 b53c f2dd 30bc 6a91 85bc
00000270: 410e 693d b88a 73bd 8939 f7bc 4927 febd
00000280: b8c6 0a3d 9f4d a8bd 4a87 963b 5d27 e5bd
00000290: e2c3 103c 5d26 9c3d a3de 82bc 2ded 64bd
000002a0: 36de 0dbe 3c5a 0cbe 4fb4 34bc c4ce e2ba
000002b0: a157 b5bd 8211 c5bc d55c 353d f3cf c23c
000002c0: aad5 39bc 527b be3b b4ed 843d f282 abbd
000002d0: f35c ddbc 0bcf 5c3d 8460 143e b948 db3d
000002e0: 7a46 043e d60f e43d 948f 01be bdb3 9abd
000002f0: 344e d93d 10ad 053e 6128 913d bfcf 88bd
00000300: 5f2b 8abd 2db5 ad3d 114d d1bd 9f02 4b3c
00000310: 7cba 6f3c 4b2c 873d 09d0 183d 4e2a 15be
00000320: 29bb a23d d288 0f3e 1934 633d d679 5abd
00000330: 18e4 babd 9827 8b3d 6f85 9ebd 7cd0 49bd
00000340: dcda 72bd eae5 dc3d 2d97 66bd 8c69 89bc
00000350: eb2c f6bc 2bb9 87bd 0864 db3d add8 58bd
00000360: 9e4d 99bb 4845 733d 54f2 a6bd e809 d6bd
00000370: 093c dd3b 263c 63bd 691c 0d3d b31a 38ba
00000380: 908e 753c dde7 e7bb 4af3 673d e098 043d
00000390: a8b7 ca3d 205c 3b3d 2330 84bd a26c cfbd
000003a0: 6da0 cd3d 7d5c a1bd 7320 a3bb 3df1 663d
000003b0: cd4e ea3d 0ffa 8bbc e47d acbd 5cc0 13bc
000003c0: 8cb9 223c 2316 babd 9ac1 febd 89e9 903d
000003d0: 1135 0cbe 1ae4 63bd 4b48 123d e927 21bc
000003e0: 4a66 11be 5ce9 703d fa86 ab3d 9576 11bd
000003f0: db8e a63c e981 8ebc 8c2f f8bd 85fa 49bc
-0.080056265 -0.10610884 -0.06592314 -0.1752211 0.060091455 0.052320596 0.05569931 -0.0412123
-0.03877453 -0.030350234 -0.109776765 0.0010250752 -0.1177666 0.14755712 -0.054351453 0.004040948
0.008280257 -0.07687855 0.043551117 -0.025787974 0.04773539 0.022293717 -0.02334993 -0.030628357
-0.07140554 -0.059535157 -0.10602641 -0.08813448 -0.078315794 -0.12419713 -0.03951775 -0.055061046
-0.029927472 0.11651372 -0.06874762 0.09743382 -0.023521686 -0.09276996 -0.043413624 0.04696817
0.08946923 0.04779713 0.026850883 0.095930204 0.10892394 -0.15387447 -0.06060522 -0.121873096
-0.042423423 -0.05092574 0.04257985 -0.08057462 0.08844479 -0.009065213 -0.08433631 -0.022143092
-0.12321131 -0.003015864 -0.0138212 0.058496233 0.10599366 -0.10403376 0.04769861 -0.07116247
-0.13079496 0.026899436 -0.108173124 -0.0071689268 0.028231014 -0.04608913 -0.13524185 0.07295983
0.102836005 -0.022307139 0.017767387 -0.03044553 -0.019593885 -0.053195488 0.08581554 0.08596481
0.045842946 -0.12880215 -0.09636716 0.007872964 0.11734517 -0.058654364 -0.123165004 -0.08242566
0.0009816461 0.015461407 -0.009331136 -0.10198616 -0.029529175 0.00722736 -0.03237492 0.024145957
0.077801876 0.059186086 0.12964998 0.044978645 0.016927706 -0.08847081 0.0067981603 -0.0033516616
-0.10366932 0.03551264 -0.10771409 0.01352999 -0.114188455 0.025707467 -0.024852918 0.06515907
0.13214947 -0.10635511 -0.053082783 0.004173397 0.10419863 -0.095325194 0.11267032 0.03058823
0.0019958508 -0.09212044 0.029768515 0.08862632 0.04063207 0.09083507 -0.12202905 -0.06074673
0.05259302 0.0019700343 -0.06884003 -0.005479813 -0.16131195 0.11896579 -0.012874358 -0.09257844
-0.02849268 0.02084359 0.102400474 -0.0036978847 0.08173096 0.04290638 -0.07269199 -0.12987843
0.076105274 -0.008906043 0.018449586 -0.042394448 0.05438007 -0.053741537 -0.108545534 -0.00775554
-0.12502965 0.02212993 -0.010795103 -0.01630469 0.05689836 -0.059458464 -0.030178802 -0.12409837
0.03388092 -0.0821793 0.0045937644 -0.111891486 0.008835765 0.07624505 -0.015975302 -0.05589025
-0.13854298 -0.13706297 -0.011029317 -0.0017304053 -0.088546045 -0.0240562 0.044277985 0.023780799
-0.011342445 0.005813041 0.06490651 -0.08374585 -0.02702186 0.05390839 0.14489943 0.1070723
0.1291751 0.11135833 -0.12652427 -0.075538136 0.10610619 0.130543 0.0708778 -0.066802494
-0.06746554 0.08481822 -0.102197774 0.012390762 0.014631864 0.06600245 0.037307773 -0.14566919
0.07945854 0.14017037 0.055469606 -0.053338848 -0.09125537 0.06794661 -0.07740294 -0.04927109
-0.05929075 0.1078604 -0.056296516 -0.016773961 -0.030050715 -0.06627115 0.10712439 -0.052941013
-0.004678442 0.059392244 -0.08151689 -0.10451108 0.0067515415 -0.055477284 0.034450922 -0.00070230215
0.014987603 -0.007077201 0.056628503 0.032372355 0.09898311 0.045742154 -0.06454494 -0.10128142
0.100403644 -0.07878969 -0.0049782335 0.056382407 0.11440811 -0.01708701 -0.08422449 -0.00901803
0.009931933 -0.090862535 -0.1243927 0.07075793 -0.13692118 -0.055637456 0.035713475 -0.0098361755
-0.14199176 0.0588163 0.08375354 -0.03551348 0.02033179 -0.01739593 -0.12118444 -0.012327795

fc2.bias f4 [32]
00000000: 2620 90bd d688 d3bd 18c0 46bd 31d0 a53c
00000010: df55 b7bd dbbf 90bd 803c b5bd 4a9b 1dbd
00000020: aa7b c13d b09f 9d3c 6768 f1bd 8ad9 58bd
00000030: d17e f8bc 2c42 f03d 64c5 7abd fb60 073b
00000040: fe4a 90bd 5a9b bdbd 3232 6e3d aa32 6d3d
00000050: 7571 babd 9d62 233d d65e 1abd 21a0 bcbd
00000060: 2c81 f3bd 23d0 9bbc 2670 bbbd d340 aabc
00000070: 647c 953d a42b fd3c df4e 503d e49d e9bb
-0.07037382 -0.10328834 -0.04852304 0.020240875 -0.089519255 -0.070678435 -0.0884943 -0.038478173
0.09447415 0.019241184 -0.11787491 -0.052941836 -0.030333908 0.11731371 -0.061223403 0.002065717
-0.070455536 -0.092581466 0.05815334 0.057909645 -0.091036715 0.039888967 -0.0376881 -0.0921023
-0.11889872 -0.019020146 -0.0915225 -0.020782864 0.07299116 0.030904599 0.050856467 -0.0071294177

bn2.weight f4 [32]
00000000: 240a 7b3f bd71 633f 9a00 6a3f 18d5 7d3f
00000010: 4953 723f 138a 793f b5de 6a3f 15d2 7f3f
00000020: af91 5e3f 3ccf 6d3f a740 643f d094 6b3f
00000030: a6c6 6b3f 7653 773f 7bc7 6e3f 391f 5f3f
00000040: 6fa7 783f 4ae6 693f 0efb 6f3f a78f 7e3f
00000050: 2032 733f 0ab6 6b3f 05d0 773f f33e 7f3f
00000060: 4403 733f dea2 7a3f 15c6 793f c63c 723f
00000070: 8736 6d3f 60c0 753f aa25 603f 481f 643f
0.9806235 0.88845426 0.9140717 0.9915328 0.94658333 0.9747631 0.91746074 0.99929935
0.86941046 0.9289434 0.8916115 0.92023945 0.9209999 0.96611726 0.93273133 0.87157017
0.97130483 0.9136702 0.93742454 0.99437946 0.9499836 0.92074645 0.9680179 0.9970543
0.9492686 0.97904766 0.97567874 0.9462398 0.9266133 0.95996666 0.8755747 0.8911023

bn2.bias f4 [32]
00000000: 0df4 8fbb 3209 9fbd 1acc 43bd 6d87 983c
00000010: 74a6 69bc 1338 a0bc 1b25 29bd 648c fcbb
00000020: 9b09 c4bd 0b99 19bd 48c3 9bbd 265c b7bc
00000030: b15e f0bc ff1c 64bc a14a 71bc 578d c6bd
00000040: 28e5 61bc 4114 c1bd 4ef5 c9bc 14eb bdbb
00000050: d1ee 34bd 581f 19bd c3c7 b9bc c66a 2c3b
00000060: bf37 f0bc 9c83 a3bb 9b75 9bbc 4bed b7bc
00000070: 1eb4 72bd a1ca 46bd b97b bebd 96fb 8fbd
-0.004393107 -0.07765426 -0.04780207 0.018619264 -0.014260877 -0.019557988 -0.041295152 -0.0077071656
-0.095721446 -0.03749947 -0.07605606 -0.022382807 -0.029342027 -0.013922929 -0.014727266 -0.09694927
-0.013787545 -0.09427691 -0.024653103 -0.0057958458 -0.044173066 -0.037383407 -0.022678262 0.002630876
-0.029323457 -0.0049900543 -0.018976977 -0.022452017 -0.059253804 -0.048533086 -0.09300942 -0.07030408

bn2.running_mean f4 [32]
00000000: b59e 20bf aa15 90be f968 72be d0f5 52be
00000010: 6074 80be 38bf 09bf 1639 b7be d47a aabe
00000020: 3baf ea3e 2d38 aabe 238e f1be 3fa8 56be
00000030: a7a4 cabd 21b8 133c e25b 7abe de19 8d3d
00000040: 6ab8 06bf a250 94be 6310 5ebe 75e6 90be
00000050: b707 a9be ad5e 403d 40db 6cbe b142 26be
00000060: 23c0 05bf 3978 dbbe a079 0cbf 2abf 07bf
00000070: 3bf7 d1bd 5339 09be 3a4f 80be 44f0 a5be
-0.6274217 -0.28141528 -0.23672856 -0.20601583 -0.25088787 -0.538074 -0.3578574 -0.33296835
0.45836815 -0.33245984 -0.47178754 -0.20962618 -0.09894686 0.009016068 -0.24449113 0.068896994
-0.52625144 -0.28967768 -0.21685939 -0.28300825 -0.33013698 0.04696529 -0.23130512 -0.16236378
-0.522463 -0.4286516 -0.54873085 -0.5302607 -0.102522336 -0.13400774 -0.25060445 -0.3240987

bn2.running_var f4 [32]
00000000: 966f d63e 2418 b33e b241 a53e eaf6 923e
00000010: f325 c03e 7f62 e43e 0478 073f 63ac 9f3e
00000020: c24f 4b3e 7e16 0d3f fc57 063f dea1 9e3e
00000030: 2793 ea3e 74df 133f e2bd 073f 52ae 3a3f
00000040: 049d ed3e 226b 903e 1252 023f 0f39 cb3e
00000050: 6a6c bb3e 0a17 e23e d568 c43e 436e ca3e
00000060: 9ee1 213f b28f 2f3f c977 a03e 6aa0 253f
00000070: 6447 083f 9054 9b3e ca8d 693f 9ac9 233f
0.41882008 0.34979355 0.32276684 0.28704005 0.37528953 0.44606397 0.52917504 0.31186208
0.19854644 0.55112445 0.52478004 0.3098287 0.45815393 0.5776284 0.53024113 0.7292224
0.46408856 0.28206736 0.5090648 0.3969197 0.3660615 0.44158202 0.3836123 0.39537248
0.6323489 0.68578637 0.3134139 0.646979 0.53233933 0.30337954 0.9123198 0.63979495

fc3.weight f4 [1, 32]
00000000: 5a60 26b8 f264 2b3a bd51 873b 4d85 8e3a
00000010: 27a1 01ba 6604 82b8 db51 a33a 3479 5eb9
00000020: 5088 6ebb 655d 023b 5a2b f83a 2e1e 983a
00000030: 9350 f83a 4b5c edba b392 3eba c967 343b
00000040: 86a1 e2b8 d253 2cba 9316 b3ba d10b 10ba
00000050: 4918 6db9 6a17 99b8 77ef 2cba 3546 c0b9
00000060: fecf 1dbb 0490 6ab9 6c43 38b8 4143 b73a
00000070: 30d9 893a ef8e deba 4d05 99b9 f530 9ab9
-3.966722e-05 0.00065381743 0.004129617 0.0010873467 -0.0004944973 -6.199702e-05 0.0012460308 -0.00021216722
-0.0036397167 0.0019892093 0.0018933818 0.0011605674 0.0018944911 -0.001810917 -0.00072697847 0.002752768
-0.00010806606 -0.00065737695 -0.0013663344 -0.0005494925 -0.00022611128 -7.29997e-05 -0.00065969623 -0.00036673402
-0.0024080272 -0.00022369629 -4.393181e-05 0.0013981835 0.0010516997 -0.0016979853 -0.00029186383 -0.00029409645

skip.weight f4 [1, 35]
00000000: 61bf 0e3d 1927 e23c 9f3f 97bd f950 74bd
00000010: 49f2 bf3c c92e 08be a9a2 2ebd 897f b63c
00000020: d9c6 af3d c587 e6bd 2cd8 373e 51e7 be3d
00000030: 4e98 f63c e285 74bd 8eb8 a5bd b3a3 c73a
00000040: c8ec 8a3a 4d6a 4139 1fc6 13be 105a 0bbd
00000050: 11a4 4bbe 7714 01be ab19 78bb dfb9 89bd
00000060: b54c d6bd ce3d 503c 4865 febb 415e 6dbc
00000070: a42f 093c 5dab 313d 240e 1ebd b7ac c0bd
00000080: 59c9 803d 53ae 233d 57ef 9b3d
0.034850482 0.027606534 -0.07385182 -0.059647534 0.02343096 -0.13299097 -0.042635594 0.02227761
0.08582849 -0.11256365 0.17953557 0.09321464 0.030101921 -0.059697993 -0.08091842 0.0015231281
0.0010599131 0.00018445514 -0.14431046 -0.034021437 -0.19886805 -0.12605463 -0.0037857096 -0.06724905
-0.104638495 0.012710048 -0.0077635385 -0.014487804 0.008373175 0.043376315 -0.038587704 -0.09407943
0.06288404 0.03996117 0.0761401
