models/mlp_SLV_20260130.pt (torch, 28387 bytes, 18 tensors)

bn_input.weight f4 [35]
000000 a6 70 78 3f 63 0a 7e 3f a5 b4 7f 3f 1e 20 76 3f
       0.9704689 0.992346 0.99885017 0.96142757
000010 8d 38 79 3f dd 78 82 3f e3 b3 7c 3f 22 b9 74 3f
       0.97351915 1.0193135 0.98711985 0.9559499
000020 e7 46 73 3f 4e b2 72 3f d2 9a 76 3f ab a8 78 3f
       0.95030063 0.9480332 0.9632999 0.97132367
000030 89 8d 77 3f e2 d2 74 3f 91 29 7b 3f dd 4d 77 3f
       0.9670034 0.9563428 0.981103 0.96603185
000040 2e 27 8c 3f 10 c3 7d 3f 5b dd 7d 3f f5 53 7b 3f
       1.0949457 0.99125767 0.99165887 0.98174983
000050 9e 6e 7e 3f 55 1c 80 3f a8 c1 7d 3f 1e 6b 7f 3f
       0.9938754 1.0008646 0.9912362 0.9977282
000060 58 c7 6f 3f 1c cc 7e 3f 56 8f 79 3f 2d ff 7d 3f
       0.9366355 0.99530196 0.9748434 0.9921749
000070 aa b4 7c 3f ef a1 74 3f d4 33 77 3f 3e e2 77 3f
       0.9871317 0.9555959 0.9656346 0.96829593
000080 43 3e 7a 3f b7 5f 75 3f 06 20 7f 3f
       0.97751254 0.95849174 0.9965824

bn_input.bias f4 [35]
000000 70 f5 2b 39 e1 7a 2f b5 c5 aa d0 b7 3f ec 5d b9
       0.00016399263 -6.537139e-07 -2.4875053e-05 -0.00021164211
000010 cc f5 81 39 94 0d 00 ba eb 11 42 b9 e9 8c 75 b9
       0.0002478793 -0.0004884836 -0.00018507957 -0.00023417514
000020 f2 da 1c ba d9 9b 84 b8 56 24 14 3a 60 8e 33 39
       -0.0005983553 -6.3232794e-05 0.00056511664 0.00017123809
000030 da 43 b3 b9 f0 d6 26 b8 a5 5f dc b6 fd ff dc b6
       -0.00034192094 -3.977766e-05 -6.5676454e-06 -6.586312e-06
000040 3c 3b 0b 3a b5 03 6d 38 13 f7 2b b9 13 f9 eb b9
       0.0005311256 5.6508656e-05 -0.00016399873 -0.00045008268
000050 b6 f3 10 ba e5 cf 5a 37 d4 19 90 b9 93 0d ba 39
       -0.000552948 1.3042217e-05 -0.00027485064 0.00035486798
000060 01 b2 9b 39 f8 92 b4 39 ce e6 98 39 e5 13 85 39
       0.00029696527 0.00034441776 0.00029163662 0.0002538256
000070 6c 60 a9 39 09 1d e0 b8 2a 8d 06 ba be 70 af 38
       0.00032306032 -0.000106865606 -0.00051327294 8.36565e-05
000080 17 ba 10 b9 a3 f5 99 39 17 12 33 39
       -0.00013802234 0.00029365448 0.00017077509

bn_input.running_mean f4 [35]
000000 74 0f ec ba a3 28 bb ba 24 d5 e6 ba 54 c1 c6 bb
       -0.0018009976 -0.0014279078 -0.0017611128 -0.006065527
000010 5d 74 26 bb 98 15 3c bb cb 3f 8b bb 42 72 3b bc
       -0.0025398948 -0.0028699394 -0.004249548 -0.011440815
000020 32 0e 73 3c de ac 7d 3c 21 b6 82 3c 2c 3a 85 3c
       0.014834927 0.015483109 0.015955986 0.01626309
000030 76 07 79 ba 8c 64 cf ba 63 0c 06 bb ab e4 93 bb
       -0.0009499708 -0.0015822812 -0.002045416 -0.0045133433
000040 3a a9 42 42 c6 52 43 42 88 21 f5 ba 0b 43 dc ba
       48.66526 48.830833 -0.001870201 -0.0016804648
000050 f7 f3 46 b9 e8 6f 81 bd fe b4 64 3d a9 cb f2 3d
       -0.00018973635 -0.063201725 0.05583667 0.11855251
000060 c2 6c ac 3c 56 8a 81 3f 36 46 ad 3d a0 f8 f6 3e
       0.021047954 1.0120342 0.08460657 0.4823656
000070 ee 21 f9 3e 09 2f f1 3e b7 0e ed 3e 74 0f ec ba
       0.486587 0.47106197 0.4630029 -0.0018009976
000080 a3 28 bb ba 24 d5 e6 ba 54 c1 c6 bb
       -0.0014279078 -0.0017611128 -0.006065527

bn_input.running_var f4 [35]
000000 fa 84 bd 3a a2 22 3b 3b 8d 2d a5 3b 0c 79 2f 3c
       0.0014459186 0.0028554578 0.0050408305 0.010710012
000010 ef ed bd 3a 6e f4 3b 3b 07 ac a3 3b 1d 5f 30 3c
       0.0014490465 0.0028679627 0.0049948725 0.010764864
000020 62 00 25 38 25 f5 bd 37 b2 be 55 37 24 91 fa 36
       3.9339422e-05 2.264471e-05 1.2740189e-05 7.467477e-06
000030 1b 35 ac 39 cf 02 56 3a d7 6f d4 3a f4 21 80 3b
       0.00032845963 0.00081638707 0.0016207647 0.0039102975
000040 5f 39 9f 43 76 88 09 43 80 ad 95 39 46 79 7c 39
       318.4482 137.53305 0.00028548762 0.0002407777
000050 4b d4 11 38 d1 d1 1d 3b 63 83 f6 3a d2 47 00 3b
       3.4768407e-05 0.002408136 0.0018807467 0.0019574058
000060 57 43 4c 37 80 fa 14 3e fb 69 70 3e 33 47 cc 3d
       1.2175026e-05 0.14548683 0.23477928 0.09974518
000070 49 4f d2 3d 6d d4 be 3d b8 9e a7 3d fa 84 bd 3a
       0.10269029 0.09317861 0.0818457 0.0014459186
000080 a2 22 3b 3b 8d 2d a5 3b 0c 79 2f 3c
       0.0028554578 0.0050408305 0.010710012

fc1.weight f4 [64, 35]
000000 da a5 8b 3d 1c 61 d4 3d 1b 8c 28 3e 4b f5 57 3d
       0.06818743 0.10370085 0.16459696 0.052724164
000010 5b d4 ec bd 2a c8 ec 3d d0 52 0c be 3e fb 25 3e
       -0.11563941 0.11561616 -0.13703465 0.16209123
000020 8d 88 db bd 50 b0 2e bd 60 86 84 3d f7 30 01 3e
       -0.10719404 -0.042648613 0.064709425 0.12616335
000030 1f a8 b8 bd ab e9 e9 bd c6 79 d6 3d bc 12 1e 3d
       -0.090164416 -0.11421522 0.10472445 0.038592085
000040 49 4d 04 be c7 20 55 3d d1 8d e6 3d ab 7b d8 3d
       -0.12920107 0.052033212 0.11257518 0.10570463
000050 6f 4d 1b 3e 03 b0 d0 bd 61 2a b9 3d 3e 13 2d 3d
       0.15166257 -0.101898216 0.09041286 0.04225468
000060 4f d6 ca bd 4e 2f 3e bd 2e a8 75 3d 47 72 e2 3c
       -0.09904157 -0.046431832 0.05997484 0.027642382
000070 d9 1e 07 3c e2 a0 f3 3d 30 ac 90 bd 53 38 16 3e
       0.008247101 0.1189592 -0.07064092 0.14669923
000080 1c 18 17 be 43 a3 cd 3d 28 d2 11 be 8d d3 5c 3d
       -0.14755291 0.10040905 -0.14240324 0.053912688
000090 c7 fc 11 be d6 c3 c4 bd e1 d4 97 3d 7e ea ad 3b
       -0.14256583 -0.09607665 0.0741365 0.0053074947
0000a0 8a 74 21 bd c5 4a e2 3d d0 b3 01 be a2 d5 2c 3e
       -0.03941778 0.110494174 -0.1266625 0.1687837
0000b0 72 9a d5 3d 7d c3 16 3e 2a d9 03 3e dc 57 1f be
       0.10429849 0.1472301 0.1287581 -0.1556086
0000c0 5d ef 8f bd 2d 3e b0 3d fe 31 73 bd b9 02 37 3e
       -0.07028077 0.08605609 -0.05937385 0.17872132
0000d0 66 5c cb 3d b7 bf da bd b4 e9 2e 3e 5a 7b 98 bd
       0.09929733 -0.10681098 0.17081338 -0.074454024
0000e0 46 10 fc 3d be 0f a6 bd 9f 60 99 3d 01 8d 3c bc
       0.123077914 -0.08108471 0.07489132 -0.011508227
0000f0 2b a5 d1 3d 67 07 75 bc 0c 79 a8 bd b8 a1 13 be
       0.102365814 -0.014955378 -0.08226213 -0.1441716
000100 13 de b1 bd d3 1a 93 bc 3c 3f d6 bd d8 f4 d3 3c
       -0.086849354 -0.017957127 -0.1046128 0.025873587
000110 6a 1e c3 bd a4 9a ef bb f1 02 6e 3d 97 68 16 3d
       -0.095272854 -0.007312136 0.058108274 0.03672084
000120 97 43 02 3e 0c cf 1f 3d ff 80 a7 3d 84 89 5f bd
       0.12721096 0.039015815 0.08178901 -0.054574504
000130 b1 b8 13 3e 7e db d3 3d b3 ff c3 bd cd a7 90 bd
       0.14425923 0.10344599 -0.09570255 -0.070632555
000140 b4 4d aa bd 8a 5f a5 bc a7 10 5a 3c 1d 29 f6 bd
       -0.08315602 -0.020187158 0.013309634 -0.120195605
000150 62 4e 8c bc d1 e2 06 be 64 d1 6b bd 19 dd 38 be
       -0.01712722 -0.13172461 -0.057572737 -0.18053092
000160 90 bb 1d bd c3 7f 02 be f6 dd c7 3c 3c 16 b7 bd
       -0.03850895 -0.1274405 0.024397831 -0.08939788
000170 ae da ae 3d 93 3c 13 be d3 31 ed bd 75 1a 9f bd
       0.085378036 -0.14378576 -0.11581769 -0.07768718
000180 d4 62 7f bd fa d7 0c be 43 40 42 3c fd ee 24 be
       -0.06235011 -0.13754264 0.0118561415 -0.16106792
000190 9b 75 f4 bc ec 2b 22 be cc 1c 9f bd 80 0c e7 3d
       -0.029841235 -0.15837067 -0.077691644 0.11281681
0001a0 38 82 0f 3e a8 b5 0b be 8c c9 12 3e 7d f7 17 3d
       0.14014518 -0.13643515 0.14334697 0.037101258
0001b0 cd 67 dc 3b 1c 0d c6 3d 76 7e 1d 3e 1a 7b eb 3d
       0.006726241 0.09670469 0.15380272 0.11498089
0001c0 2c f8 b4 bd b4 67 f8 3d f6 6d 17 be ab 92 24 be
       -0.088363975 0.12129155 -0.1478804 -0.16071574
0001d0 ef 08 98 3d 00 22 be 3d 60 15 9e 3d be 1f 17 be
       0.07423579 0.09283829 0.07718921 -0.14758202
0001e0 5d 22 24 bd 38 0b 3c bd 69 34 e2 3d df 65 f2 3c
       -0.040071834 -0.045909137 0.11045153 0.029589592
0001f0 1b d3 0b bd 93 b3 13 be fe ad e8 bd 07 b8 14 3e
       -0.034136873 -0.14423971 -0.113613114 0.14523326
000200 9f 10 0e be ff 97 2c bd 2c 6d f2 3d 7f ac b0 bd
       -0.13873528 -0.042137142 0.11837229 -0.08626651
000210 19 23 19 3e f4 14 a6 bd 99 72 05 be 85 3f c8 3d
       0.14954795 -0.08109465 -0.13031997 0.097777404
000220 1e 91 d6 bd 25 fc a8 3d a8 de 7d bd cd 7a 78 3d
       -0.10476898 0.08251218 -0.06197992 0.060663987
000230 96 8b e6 3c 33 78 13 3d 1a 77 fc bc c3 02 f0 bd
       0.028142732 0.036003303 -0.03081851 -0.11719277
000240 3f 00 58 3d cf 79 dc 3b 38 50 55 3d 40 ca 86 3d
       0.05273461 0.006728388 0.052078456 0.06581545
000250 31 f7 fd bd 07 ea c6 3d 27 36 c7 bd 30 8e 5b bd
       -0.12400664 0.09712606 -0.097271256 -0.053602397
000260 c6 18 29 3d fc c2 ad bd 0f 20 32 3e 7e 0c 90 bd
       0.04128339 -0.08484456 0.17395042 -0.07033633
000270 69 8a 24 3e a1 02 f9 3d e4 81 34 3e de 35 09 be
       0.16068424 0.121587045 0.17627674 -0.13399455
000280 11 54 a9 3d f5 d6 df bd 24 87 13 3e a4 2f 46 bd
       0.082679875 -0.10929672 0.14407021 -0.048385277
000290 e2 0d ba 3d 6f fa b9 3c c3 ef 7e 3c a8 d0 48 bd
       0.09084679 0.022702424 0.015560093 -0.049027115
0002a0 a7 13 10 be 90 05 84 bc f5 39 1b 3e 07 c5 2e bd
       -0.14069997 -0.016115934 0.15158828 -0.04266837
0002b0 ab b6 5d bd 02 ad 8a bd d7 83 8d bd 48 d2 27 3d
       -0.054129284 -0.0677128 -0.06909912 0.040972024
0002c0 1a 34 f2 3c 80 4d 91 3c 5a 12 63 3a 7e ae 98 bc
       0.02956586 0.01773715 0.00086620974 -0.018637892
0002d0 a5 a9 fe bd 78 3e 45 3d a3 bd 37 3d 04 54 33 bd
       -0.12434701 0.048155278 0.044858586 -0.043781295
0002e0 3e f1 33 3e d6 da 5c 3d 9d 2f 0e 3e ae 3f 19 3e
       0.17572495 0.053919636 0.1388535 0.14965698
0002f0 29 75 22 3d 5d 95 01 3e d7 9f 0b 3e af 0d 1a 3c
       0.039662514 0.12654634 0.13635193 0.0094026765
000300 c4 12 06 be e7 08 05 be 61 68 9b bd 11 97 86 bd
       -0.13093096 -0.12991677 -0.07588268 -0.065717824
000310 30 e7 13 be ef a5 96 bd 3b 16 38 3e 4a 03 07 3e
       -0.1444366 -0.07355868 0.1797723 0.13184848
000320 2f 8b e3 3d e2 06 16 be ee 17 04 be 24 2e b6 3d
       0.111105315 -0.14651063 -0.12899753 0.088955194
000330 66 60 a2 bc 97 ed 13 be 64 41 ab b9 9c b0 59 bc
       -0.019821357 -0.14446102 -0.0003266438 -0.013286736
000340 05 9a f0 3d 15 f0 68 3d 8b c8 3a be e4 f1 70 bb
       0.11748127 0.056869585 -0.18240564 -0.0036765272
000350 ab 39 92 3d 1a 62 02 be eb 67 ed 3d cf 5c da bd
       0.071399055 -0.12732735 0.115920864 -0.10662233
000360 4b 7b 6c bd fa 15 aa bb c8 3d ff 3d ba 37 13 be
       -0.05773477 -0.005190608 0.12462956 -0.14376727
000370 4a 48 99 bd 3a e7 5d bd 99 df fb bd 9a 85 32 3c
       -0.07484491 -0.054175593 -0.12298507 0.010896111
000380 db c4 6d bd 0a e3 ea bb 69 57 f5 3c f2 06 d1 3d
       -0.058049064 -0.0071681784 0.029948907 0.10206403
000390 6d e1 f7 bd 59 7c 0d 3e db ad c2 3d 46 67 16 be
       -0.121035434 0.13816966 0.095058165 -0.14687833
0003a0 2d c1 03 be fd 6f 26 be c8 6a 04 3e 20 0a c1 3c
       -0.1286666 -0.16253658 0.12931359 0.023564398
0003b0 27 fc 31 3e 28 f4 65 bd 19 28 62 3d 22 9d 0c be
       0.17381345 -0.05614105 0.05521402 -0.13731816
0003c0 1f d2 e6 bd 44 bf 07 be 53 c8 da 3d 95 ae 70 3c
       -0.11270546 -0.13256556 0.1068274 0.014690061
0003d0 7c 3e 1d 3e 4b e6 08 3e 69 d6 b2 3c d4 83 12 3e
       0.15355867 0.133691 0.021830754 0.14308101
0003e0 f9 7f a9 3d e2 db ea bd de c8 21 bd ac 48 f1 3c
       0.08276362 -0.114677206 -0.039498203 0.029453598
0003f0 01 d4 2d bc 46 18 f3 3d 8d 16 13 be fd 2a ed 3b
       -0.010609628 0.11869864 -0.14364071 0.0072377906

fc1.bias f4 [64]
000000 34 06 14 be c6 f5 26 be 64 07 e9 3d 1b 19 a3 3c
       -0.14455491 -0.16304693 0.11378363 0.019909432
000010 b2 9f 17 3e 1b f8 4c bd e9 47 b2 bd c8 42 c6 bc
       0.14807013 -0.0500413 -0.08705122 -0.024201766
000020 eb 10 5b bd 89 0f 81 bc 86 27 7f bc 38 fc dc 3d
       -0.05348293 -0.015754478 -0.015573388 0.107902944
000030 21 9b d2 3d 20 c5 1e be 57 5a 21 be 6e 40 cd 3c
       0.10283495 -0.15504885 -0.15757118 0.025055137
000040 be 85 6a bd 99 0a c5 3d fa 0b 05 be ab c7 58 3c
       -0.057256453 0.09621162 -0.1299285 0.013231198
000050 34 f8 aa 3d b9 86 8d 3d 92 21 14 be 8d 4f 0d bb
       0.08348122 0.06910462 -0.14465931 -0.0021562309
000060 02 ab d1 3d 54 4f bc 3d 02 cf 00 3e 63 9e d7 3d
       0.10237695 0.09194818 0.12578967 0.10528257
000070 f3 5b 1f bb f2 89 cc 3d 16 c8 2b bc 3c 16 ab bd
       -0.002431628 0.099872485 -0.010484716 -0.0835385
000080 48 36 00 be 26 f0 ff bd 9e e7 ff 3d d0 a4 bc 3d
       -0.12520707 -0.124969766 0.12495349 0.09211123
000090 3b 51 bb bb e9 e2 27 3e 87 d8 1a 3e 4a 96 5d 3c
       -0.0057164705 0.16395153 0.15121661 0.013524601
0000a0 48 a5 98 bc 03 63 f1 bd d9 b4 df 3d e2 16 09 3d
       -0.0186335 -0.11786463 0.10923166 0.03346909
0000b0 19 22 68 bd eb cb ca bd 85 e3 a8 3d 00 28 0a be
       -0.056673143 -0.099021755 0.08246521 -0.13491821
0000c0 80 21 f6 bd 44 35 cd 3d d5 59 f9 bd 26 92 a3 3d
       -0.12018108 0.10019925 -0.12175337 0.0798686
0000d0 82 9e 8e 3c ee 8f b7 bd 7e f5 ba 3d 19 ad 29 3d
       0.017409567 -0.08962999 0.09128855 0.041424844
0000e0 e2 0b 22 3e c8 11 16 3e 99 78 0e 3e 75 d8 9f bd
       0.15824845 0.1465522 0.13913192 -0.07804958
0000f0 15 db 48 3d af 15 92 bd df 39 b5 bd bf 4f 0d be
       0.049037058 -0.07133042 -0.08848929 -0.13799952

bn1.weight f4 [64]
000000 1e 78 74 3f b5 f6 6f 3f d3 b0 77 3f 6f 30 85 3f
       0.95495784 0.9373582 0.9675419 1.0405406
000010 23 12 75 3f 30 13 74 3f fe 67 81 3f db 60 7b 3f
       0.957308 0.9534178 1.0109861 0.98194665
000020 84 d0 72 3f 19 a1 7e 3f 7a a3 81 3f 6d d3 80 3f
       0.9484942 0.99464566 1.0128014 1.0064522
000030 24 9a 79 3f 94 74 81 3f 0c 53 7b 3f 90 04 7c 3f
       0.97500825 1.0113702 0.98173594 0.9844446
000040 f5 e8 7b 3f d2 ea 73 3f 52 6d 7c 3f b1 67 7c 3f
       0.9840234 0.9528018 0.9860431 0.9859572
000050 be 74 75 3f 57 b8 81 3f 6e 58 76 3f 57 45 79 3f
       0.9588126 1.0134381 0.96228683 0.9737143
000060 77 b9 7a 3f 23 77 76 3f cd 66 7a 3f d3 b3 79 3f
       0.97939247 0.9627554 0.9781311 0.97540015
000070 80 0d 73 3f 32 f5 80 3f dd 75 7a 3f 52 99 82 3f
       0.94942474 1.0074828 0.97836095 1.020304
000080 08 b1 82 3f b7 1e 79 3f d3 fd 72 3f 6a cc 77 3f
       1.0210276 0.9731249 0.94918555 0.96796286
000090 b7 90 81 3f 00 48 7c 3f 91 69 80 3f 3f 01 80 3f
       1.0122288 0.98547363 1.0032216 1.000038
0000a0 ca f6 78 3f 9c 21 82 3f 0c 93 79 3f fb 30 76 3f
       0.9725157 1.0166507 0.9749 0.9616849
0000b0 7d a6 73 3f 64 3b 81 3f 08 f8 75 3f a4 64 81 3f
       0.95175916 1.009625 0.9608159 1.0108838
0000c0 80 91 7a 3f 89 74 78 3f 67 1b 76 3f 85 0b 80 3f
       0.97878265 0.9705282 0.9613556 1.0003515
0000d0 59 de 7b 3f 5a 4e 83 3f 94 da 7a 3f a7 fe 83 3f
       0.9838615 1.0258286 0.97989774 1.0312089
0000e0 8c 8d 79 3f 4b 1f 80 3f 71 92 80 3f 27 5a 83 3f
       0.9748161 1.000955 1.004469 1.0261887
0000f0 dc db 7e 3f 57 82 75 3f ec 48 7e 3f c6 32 7a 3f
       0.9955423 0.9590201 0.9933002 0.97733724

bn1.bias f4 [64]
000000 49 cc d6 bc 70 4d 5d bd 42 70 06 bc 7f e3 0c 3d
       -0.026220458 -0.05402893 -0.008205475 0.034396645
000010 c7 21 4f bc a1 14 b2 bb 1f c2 15 3c eb 5a 07 bc
       -0.0126423305 -0.005434588 0.00914052 -0.008261423
000020 fc 5e 0b bd a6 db c1 bc f5 ba f4 3c c6 ce e4 3c
       -0.03402613 -0.023664307 0.029874304 0.027930629
000030 a2 dc cf 3b 61 30 4a 3c c0 5a a6 bb da b0 0a 3c
       0.00634344 0.012340636 -0.005076736 0.008465016
000040 6c b4 53 bc 28 37 11 bd 48 64 99 bc 8a bd 83 3b
       -0.012921434 -0.03545299 -0.018724576 0.0040203976
000050 06 13 26 bc ff be 66 b9 c9 a2 34 3c e3 98 90 bc
       -0.0101363715 -0.00022005661 0.011025139 -0.017651027
000060 5d 9b 43 3b 4c cc 15 bc 55 c0 27 3c 3a dd 06 bb
       0.0029847242 -0.009142946 0.010238727 -0.0020578639
000070 5e 57 cd bc 5c 7b 1f bb 1d 43 88 ba fb 94 9b bc
       -0.025066074 -0.0024335003 -0.0010395978 -0.018991938
000080 d1 38 a0 3c 30 3b 0c bb c7 16 9c bc 6d 75 90 bc
       0.019558342 -0.0021397583 -0.01905383 -0.017634118
000090 37 06 91 3b bd f8 1f bb 7c c3 52 3c a2 32 bb bc
       0.0044257897 -0.0024409734 0.01286399 -0.022851292
0000a0 ac 59 07 bc 1d 6b ce 3c b4 1f 5a bc 81 56 2e bc
       -0.008261126 0.02519756 -0.013313223 -0.010640741
0000b0 f6 94 c8 bc 24 59 d5 3c b4 2d 7f bc 03 7e 58 39
       -0.024485093 0.026043482 -0.015574861 0.00020646308
0000c0 5a 6b e6 3b 10 0e b3 bc 73 0d b3 bc 78 30 c8 bb
       0.0070318403 -0.021857291 -0.021856999 -0.0061092936
0000d0 a9 ad 48 3c 76 bb a9 bb 47 13 5e bc f7 a7 ae 3c
       0.012248435 -0.005179818 -0.013554401 0.021320326
0000e0 95 00 0e 3c b0 ed c1 3c 7c 95 78 3c bc ff 66 3d
       0.008667131 0.023672909 0.015172359 0.05639623
0000f0 20 8e 9b 3c 29 99 65 bc ce 12 e0 bc 07 77 48 ba
       0.018988669 -0.014013567 -0.027352717 -0.0007647131

bn1.running_mean f4 [64]
000000 2e 28 14 be d7 cf 26 be 54 dd e8 3d 46 7c a0 3c
       -0.14468452 -0.16290222 0.1137034 0.019590508
000010 ab 87 17 3e bd 68 4b bd ff 17 b2 bd be aa c7 bc
       0.14797847 -0.049660433 -0.08695983 -0.024373408
000020 35 48 5a bd 27 bc 80 bc 4c 52 81 bc 34 bd dc 3d
       -0.05329152 -0.015714718 -0.015786313 0.10778275
000030 eb c0 d2 3d d3 6e 1e be 13 ec 20 be de 98 ce 3c
       0.102907024 -0.15471964 -0.15715055 0.025219377
000040 98 a9 6a bd 17 92 c4 3d 5c fd 04 be 7a 8a 53 3c
       -0.057290643 0.09598177 -0.12987274 0.012911433
000050 98 83 aa 3d fb 88 8d 3d ce 4e 14 be 30 22 13 bb
       0.08325881 0.069108926 -0.14483187 -0.0022450797
000060 a4 bf d1 3d f3 66 bd 3d 73 cf 00 3e b8 95 d7 3d
       0.10241631 0.09248152 0.12579136 0.105266035
000070 4d 60 19 bb 52 b0 cc 3d 86 1e 2c bc b1 14 ab bd
       -0.0023403347 0.09994568 -0.010505324 -0.08353556
000080 05 6a 00 be a2 d1 ff bd e6 e5 ff 3d 98 08 bd 3d
       -0.12540443 -0.12491156 0.124950215 0.09230155
000090 c7 de be bb a2 81 27 3e bb 06 1b 3e a6 f5 5d 3c
       -0.005824897 0.16358045 0.15139286 0.013547337
0000a0 48 3d 9a bc fe 48 f1 bd fb 92 df 3d 71 ba 08 3d
       -0.01882805 -0.117815 0.10916706 0.03338093
0000b0 b1 e4 67 bd bd b2 ca bd af d7 a8 3d 9e 24 0a be
       -0.05661458 -0.09897373 0.082442634 -0.13490531
0000c0 6c b0 f5 bd 8c 0a cd 3d 52 48 f9 bd 1b 6e a4 3d
       -0.119965404 0.10011777 -0.12171997 0.080288135
0000d0 63 00 8e 3c d2 f4 b7 bd ff 91 bb 3d 2d 95 29 3d
       0.017334169 -0.08982243 0.09158706 0.04140203
0000e0 ca f8 21 3e 9a be 15 3e eb 1e 0e 3e 67 cb 9f bd
       0.15817562 0.1462349 0.13878982 -0.07802468
0000f0 fa 84 49 3d 5c 80 92 bd 1b f4 b4 bd fc 52 0d be
       0.049199082 -0.07153389 -0.08835622 -0.13801187

bn1.running_var f4 [64]
000000 f8 20 a7 3e b6 f3 b5 3e 4f dd b9 3e 50 d4 d1 3d
       0.3264234 0.355375 0.36301658 0.102455735
000010 dc ae 33 3e 17 d3 66 3e dc f7 ea 3e 76 b2 7e 3e
       0.17547172 0.22541462 0.45892227 0.24872765
000020 8e 3a 45 3e 2c 8b 20 3e 9c 86 2b 3e 70 f0 32 3e
       0.19260618 0.1567809 0.16750568 0.17474532
000030 d3 7c aa 3e e5 59 0c 3f f2 03 9a 3e f2 d3 c8 3e
       0.33298358 0.5482467 0.30081135 0.392242
000040 0c c8 8b 3e d9 ae 06 3f 5d ae 29 3e aa 24 a2 3d
       0.2730106 0.52610546 0.1657042 0.07917149
000050 53 7c 9a 3e 91 69 8e 3e 6a ae 18 3e d6 b3 b1 3e
       0.30172977 0.27814916 0.14910284 0.34707516
000060 1f 23 ff 3e 10 d7 04 3e 97 4b 12 3e 45 29 b3 3e
       0.49831483 0.12972665 0.14286648 0.34992424
000070 97 64 41 3f 1d b2 ae 3f 5c 21 ff 3d 03 80 bf 3e
       0.7554411 1.3648106 0.12457535 0.37402353
000080 f2 46 76 3e 12 47 f8 3e ce d2 03 3f 67 93 32 3e
       0.24050501 0.48491722 0.5149354 0.17439042
000090 20 97 aa 3f da 9e d4 3d c5 84 d8 3e 01 b4 00 3f
       1.332737 0.10381861 0.42288795 0.50274664
0000a0 38 0e bb 3e 61 ed cc 3d 78 e9 84 3e 4d 30 6b 3f
       0.36534286 0.10006214 0.25959373 0.91870576
0000b0 08 5c 2a 3f 6e f6 ec 3e 60 b4 71 3e 16 09 88 3f
       0.6654668 0.4628176 0.23603964 1.0627773
0000c0 6c 1e 2f 3f 87 01 e2 3d c8 06 46 3e 26 06 22 3f
       0.68405795 0.110354476 0.19338524 0.6329063
0000d0 36 48 8e 3d 0b d4 a0 3d 64 53 a8 3e 19 19 1a 3f
       0.06947367 0.07852944 0.32876122 0.60194546
0000e0 74 b0 52 3e ec fe 2f 3e 16 ae 4a 3f 5a cb ad 3e
       0.20575124 0.17187089 0.79171884 0.33944207
0000f0 60 c5 8c 3d ae ce 86 3e 81 d5 23 3f 52 6e fd 3d
       0.06873584 0.2632956 0.63997656 0.123745576

fc2.weight f4 [32, 64]
000000 15 43 f5 bd d2 1a a5 3b e0 02 af 3c 33 20 bb 3d
       -0.119756855 0.0050385976 0.021363676 0.09137001
000010 fe e5 bf bd 40 f3 a5 39 05 41 a4 3d 08 94 99 3d
       -0.093700394 0.00031652488 0.08020214 0.07498938
000020 75 d2 bc bd c8 4d ef bd eb 5d 28 bd 2b e5 b2 bc
       -0.09219829 -0.116847575 -0.041105192 -0.021837791
000030 c7 62 79 3b 64 48 a6 3d d2 84 78 bd ba f8 02 be
       0.003805326 0.08119276 -0.060673542 -0.12790194
000040 63 87 36 bd fb 24 a5 3c c8 11 0c be f0 dc dc 3d
       -0.04456271 0.020159235 -0.13678658 0.10784328
000050 35 40 03 be 8c 36 2e bd 22 83 af 3d 05 74 9b 3c
       -0.12817462 -0.04253249 0.085699335 0.01897622
000060 ee a6 df bc 2c fe da 3d 01 64 d4 3d a8 a1 da 3d
       -0.027301278 0.10693011 0.10370637 0.10675365
000070 85 95 b1 bc 06 e0 c4 bd 2e b8 99 bd d4 28 a5 3d
       -0.021677742 -0.096130416 -0.075058326 0.08064428
000080 df 1d 2c 3c 45 12 27 bd d8 9f 81 3d b9 3c 6d 3d
       0.010505169 -0.040788908 0.06329316 0.057919238
000090 a3 e1 a8 3d 14 56 86 bd 22 2a d1 3d d8 17 37 bc
       0.08246162 -0.06559387 0.10213114 -0.011175118
0000a0 c5 d5 9a 3c 96 c4 94 bd 18 0d bd bd 35 7a 51 bc
       0.018900761 -0.07264058 -0.09231013 -0.012785484
0000b0 5c 34 b5 3d 82 dd 8a 3d 1d 2b 0c 3e ff f9 42 bc
       0.088478774 0.067805305 0.13688321 -0.011900424
0000c0 a2 12 8c 3d 61 6d 67 bc 64 73 cc 3d 12 63 82 3d
       0.068394914 -0.014125199 0.099829465 0.063665524
0000d0 e4 1a 3a 3e 43 15 e3 bd 35 24 a0 bd 7b 71 b3 3d
       0.1817432 -0.1108804 -0.07819406 0.08761879
0000e0 3f 59 4d bd ba c4 7f 3c c7 8f e9 3d 6a dd 66 bb
       -0.05013394 0.015610868 0.114043765 -0.0035227188
0000f0 7e 3b bc 3d 72 a2 c2 bd 99 d7 bc 3d 13 cb 95 3d
       0.09191035 -0.0950364 0.092208095 0.07314124
000100 84 a1 f9 3d c0 8a 28 bd f0 67 f0 3a 22 b9 70 3d
       0.1218901 -0.041147947 0.0018341523 0.058770306
000110 d5 17 a8 bd 86 c9 d8 3c 23 0e 72 3d 7b c4 bc 3d
       -0.082076706 0.026463281 0.059095513 0.09217163
000120 2c 34 d9 3d 39 50 f0 bd c8 4b 7d 3d a0 58 80 bd
       0.10605654 -0.11734051 0.06183985 -0.06266904
000130 e4 ed 80 bd 29 b7 14 be e7 5d 91 bd d3 67 fb 3b
       -0.06295374 -0.14522995 -0.070979886 0.007672289
000140 05 96 84 3d b5 9f b9 bd 14 de 85 3d 6e 33 0c 3e
       0.064739265 -0.09063665 0.06536499 0.13691494
000150 81 b2 5d 3d c2 93 a1 3d 6d 11 8a 3d 61 32 8d 3d
       0.054125313 0.07889511 0.06741605 0.06894375
000160 98 2b 13 be fc 9a c3 3d db b4 cc 3c a8 62 47 bd
       -0.14372098 0.09551045 0.024988582 -0.04867807
000170 b9 b2 a8 bd 56 75 f0 bd ad 27 ec 3d ef 98 56 ba
       -0.08237214 -0.1174113 0.11531005 -0.0008186241
000180 a4 0f 85 bd 13 4c de 3d eb 74 1e 3d b8 83 0e bd
       -0.06497124 0.10854354 0.03868572 -0.034793586
000190 c4 d3 ac 3d d1 a8 7c 3c 93 71 c9 bd f7 d9 d9 3d
       0.084388286 0.015421108 -0.09836116 0.106372766
0001a0 86 42 8a bd 7d 0d 99 bd d4 81 91 3d 45 54 0d be
       -0.067509696 -0.07473276 0.07104841 -0.13801678
0001b0 68 df c0 3c 19 73 d8 3d dc 4c c1 bd 5c fe 02 3d
       0.023544028 0.10568828 -0.09438488 0.031980857
0001c0 35 42 e8 bd 6f a7 80 3d 5a d5 00 be 63 cf db bd
       -0.11340753 0.062819354 -0.12581387 -0.10732915
0001d0 39 1d bf 3d 4f a3 a5 3d cc 84 21 bd 9d 79 67 3d
       0.09331746 0.08087789 -0.039433286 0.056512464
0001e0 9e e8 07 3d 74 cc 9e 3d 8b 1f 2a bd 99 1a 52 bc
       0.033180825 0.0775384 -0.041533988 -0.012823724
0001f0 96 37 fb bd ae 76 5c bc e0 33 10 3d d2 aa 99 3d
       -0.122664616 -0.01345603 0.03520572 0.075032845
000200 37 f0 ca 3c 3f ed 3e 3d 9e 8e 01 be 9c bb 0b 3e
       0.024772746 0.046612974 -0.1265206 0.13645786
000210 e9 8b a7 3d 9e 7a 02 bd 87 f9 08 be 14 21 14 bd
       0.081809826 -0.031855218 -0.13376437 -0.03616436
000220 e7 57 06 bc a4 ca 10 bb 17 8d a1 3d b1 bf 0d 3c
       -0.0081996685 -0.002209344 0.07888239 0.00865166
000230 77 c0 6e 3d c7 4e d1 bd ca c3 c5 bd f7 30 8a bd
       0.058289018 -0.10220104 -0.096564844 -0.067476206
000240 ce d1 a9 3d 7e 0d c5 bd ff 91 82 3d 9d 26 73 3d
       0.0829197 -0.09621714 0.06375503 0.059362996
000250 9f 18 10 be 92 75 0e be b4 23 76 bd 4c f9 d7 3d
       -0.14071892 -0.13912037 -0.060092643 0.105455965
000260 2a 58 3b 3d ce 8b 6c 39 1b 9f a7 3d 42 23 ad bd
       0.045738377 0.00022558795 0.08184644 -0.084539905
000270 d3 31 cb bb 45 de f2 bd 38 6b 43 3d 56 e7 c0 bd
       -0.006201008 -0.11858801 0.047709674 -0.09419124
000280 36 9f fb bc 78 d0 24 3d ee ce e3 bc 17 24 7b 3d
       -0.030715566 0.040237874 -0.027808633 0.061313715
000290 fe 77 b0 3c 9f 2c 43 bc 93 dd cf 3d 3d 86 3b bd
       0.021541592 -0.011912494 0.10149684 -0.045782316
0002a0 cb bf 8a 3d 65 96 3b bd 59 b8 d5 bd 06 2d ab 3d
       0.06774863 -0.045797724 -0.10435552 0.08358197
0002b0 fb ce 86 3b 6f 1d 29 be 19 5c 54 bc ef ac f6 bc
       0.0041140295 -0.16515134 -0.012961411 -0.030111758
0002c0 ba 1a 3e 3d 38 16 1d 3d 15 65 ee 3c 31 ef 7f bd
       0.046412207 0.038351268 0.029100934 -0.06248397
0002d0 5b 22 c0 bd 48 66 56 bc 66 53 dc bd 9d 27 a5 bc
       -0.09381553 -0.013085909 -0.107580945 -0.02016049
0002e0 02 70 a0 bd 96 09 4d bd 94 ed 5b 3d 16 1a 9a 3d
       -0.07833864 -0.05005797 0.05369337 0.07524507
0002f0 7f 21 1e 3d 20 43 2e 3d 36 e8 a4 bd 13 42 e3 bd
       0.038606163 0.042544484 -0.08052103 -0.11096587
000300 be 1c 39 bd 62 c5 f3 bc 42 6e 8c 3d fc 58 1b bb
       -0.045193426 -0.029757205 0.068569675 -0.0023704162
000310 89 d4 7a 3c 94 f3 57 bc 1c 0c e4 3d 51 50 9b bd
       0.015309461 -0.013180632 0.11135122 -0.075836785
000320 cd 06 29 bd 48 22 2c be 70 88 08 3d d6 51 9b bd
       -0.04126625 -0.16809952 0.033333242 -0.07583968
000330 f3 8e 84 3c fb 17 54 3c 29 d4 ba bc 3d 66 04 bd
       0.016181445 0.0129451705 -0.022806244 -0.032324065
000340 c0 87 e6 bd 2a 77 86 3d 20 34 3e bd 28 12 44 bc
       -0.11256361 0.065656975 -0.04643643 -0.011967219
000350 39 94 6a 3d a3 c2 74 3c 1d 6c b0 3d 64 f3 dd bd
       0.057270262 0.014938983 0.08614371 -0.10837439
000360 81 aa 80 3d e7 97 a8 3d 38 8d ba bc 41 13 f4 3c
       0.06282521 0.08232098 -0.022772416 0.029794337
000370 07 3e ae 3d fc fc ed bc ea d5 9e bd 78 c7 15 be
       0.085079245 -0.029051296 -0.077556446 -0.14626873
000380 bd ff 60 bd b3 29 4a bd 53 8b a7 3d 21 1b c3 3d
       -0.05493139 -0.049356174 0.08180871 0.09526659
000390 8d 6e 64 bc b5 37 14 3d 31 fa e6 bd f1 3c 9d bc
       -0.013942373 0.03618594 -0.11278189 -0.019194098
0003a0 86 92 c5 bc 7e 26 f9 bc ae 00 1e bd 53 32 04 be
       -0.02411772 -0.030413862 -0.038574867 -0.12909822
0003b0 f0 67 36 3d 82 46 e2 3c 95 26 e0 bd 49 db 91 bd
       0.044532716 0.027621511 -0.10944859 -0.071219034
0003c0 ea 49 a9 bc ca 9c b0 bd 9c 13 24 bd 1d 39 e6 bd
       -0.020665128 -0.08623655 -0.040057763 -0.11241362
0003d0 5c 30 65 bd 98 10 0a be 14 b4 37 bd 6a 36 e3 3d
       -0.055954322 -0.13482893 -0.04484947 0.11094363
0003e0 4c d6 35 bd 7e 42 0c 3d dc 5c 3e 3d 31 85 e0 bd
       -0.044393823 0.0342431 0.046475276 -0.10962904
0003f0 15 db 80 3d 48 fc c3 bd 42 d6 f1 bd d7 8d 94 3d
       0.062917866 -0.09569603 -0.118084446 0.07253616

fc2.bias f4 [32]
000000 9b 99 4d bd 56 b7 93 3d 38 6e a5 bd 62 84 e5 bd
       -0.050195318 0.07212703 -0.08077663 -0.11206891
000010 bb 9b f0 bd 26 29 f6 3d 6f fe b6 bd 9f fe e2 3d
       -0.11748453 0.12019567 -0.08935248 0.11083721
000020 31 63 bf 3d 91 07 e1 3d da 40 18 bd 2a c8 34 bc
       0.09345091 0.10987771 -0.037171222 -0.011034051
000030 e8 45 60 3d 1b 53 c8 bd 40 d1 5b bd 59 03 29 3c
       0.054754168 -0.09781476 -0.053666353 0.01031574
000040 48 2c 70 3d b0 e6 2c 3d 14 9a e3 bb 05 65 06 bc
       0.05863598 0.04221219 -0.006945858 -0.008202796
000050 b3 8c a7 3c 5f b0 97 bd 5f 61 85 3d f8 a2 7c 3d
       0.020452833 -0.07406687 0.06512713 0.061678857
000060 3c d1 06 3d 3b 44 cd 3d 98 7a bc 3d a2 73 99 3d
       0.032914385 0.100227796 0.092030704 0.07492758
000070 0c 49 ed bd 3d 0f c2 3d e1 29 b2 bd 9e 2b eb bd
       -0.11586198 0.09475563 -0.08699394 -0.11482929

bn2.weight f4 [32]
000000 71 cd 68 3f c4 e0 60 3f db ec 66 3f 21 50 64 3f
       0.9093848 0.87842965 0.9020516 0.89184767
000010 c0 ef 6c 3f 68 26 73 3f bd f1 6e 3f dc 89 7a 3f
       0.9255333 0.9498048 0.93337613 0.97866607
000020 f6 4c 67 3f 35 8e 62 3f ec 32 6f 3f 69 2c 62 3f
       0.9035181 0.8849824 0.93437076 0.88349015
000030 47 66 62 3f 64 1d 61 3f 60 9e 73 3f 5c b6 76 3f
       0.8843731 0.8793547 0.95163536 0.9637201
000040 c0 fd 6a 3f ed 15 7c 3f 98 93 7f 3f 46 a0 6e 3f
       0.9179344 0.98470956 0.99834585 0.9321331
000050 b7 98 6c 3f 0a b9 60 3f cd 56 63 3f f8 c8 68 3f
       0.92420524 0.8778235 0.8880432 0.90931654
000060 23 8b 68 3f 7a 3d 67 3f a5 48 6d 3f e1 55 72 3f
       0.90837306 0.9032818 0.9268897 0.9466229
000070 ba 62 5a 3f 17 44 76 3f b7 d0 63 3f 9f 55 6f 3f
       0.85306895 0.96197647 0.8899035 0.9349002

bn2.bias f4 [32]
000000 cc c9 9a bd bd c9 c1 bd a1 69 98 bd 64 dd ac bd
       -0.07558021 -0.09462307 -0.07442022 -0.084406644
000010 93 2e 41 bd 18 b8 aa bc 6c d9 48 bd 65 a0 58 3c
       -0.047163557 -0.020839736 -0.049035475 0.013221835
000020 c0 f0 73 bd 05 31 b1 bd 8b 94 36 bd 3d a8 ac bd
       -0.05955577 -0.08651928 -0.044575255 -0.084305264
000030 e3 01 a1 bd 8a 80 c7 bd 68 b5 39 bc 77 43 ec 3b
       -0.07861688 -0.09741314 -0.0113347545 0.007210191
000040 cb a6 50 bd e6 fe cd 3c 70 8a ef 3c f0 bf 0f bd
       -0.050940316 0.02514596 0.029240817 -0.035095155
000050 87 9d 0d bd 14 92 ba bd 96 d9 ad bd 1f 33 84 bd
       -0.034574058 -0.091098934 -0.08488767 -0.06455063
000060 71 21 41 bd 7f 69 e1 bd 1e 99 5b bd 27 a8 e6 bc
       -0.047151033 -0.1100645 -0.05361282 -0.028156353
000070 f5 48 fa bd 28 32 42 bb e8 9b b3 bd 48 19 1a bd
       -0.12220947 -0.0029631946 -0.08769971 -0.037621766

bn2.running_mean f4 [32]
000000 8d 32 57 3e 71 7e 23 3e 3c 1b ce be 02 63 1a bf
       0.21015377 0.15966202 -0.40255153 -0.60307324
000010 e3 e0 22 bf f2 e2 7c 3d 6e b1 27 be 05 7b f7 be
       -0.636244 0.06173987 -0.16376278 -0.48336044
000020 fc f0 28 bf c5 7a b0 be c8 b7 c6 be bd 8a e6 3d
       -0.6599271 -0.34468666 -0.3881209 0.11256931
000030 4d 2d 89 be 17 d8 88 be eb db c5 be ea df fd bc
       -0.26792374 -0.26727363 -0.38644347 -0.03099056
000040 e1 03 3b be ac 82 27 be e3 8a a6 be 01 e8 14 be
       -0.18263198 -0.16358441 -0.32527837 -0.14541627
000050 f6 48 14 be 97 1e af be 65 1a 71 bd 7f 17 0c bf
       -0.14480957 -0.34203026 -0.058863062 -0.5472335
000060 b2 a2 a6 be 27 fc b5 3e 60 da be be 48 ee 11 be
       -0.32546002 0.3554394 -0.37275982 -0.14251053
000070 61 f2 22 3f 86 4d 26 3d 59 0c 01 3e c6 68 14 bf
       0.6365109 0.040601276 0.12602367 -0.5797237

bn2.running_var f4 [32]
000000 4b cb 7d 3e cd 80 f7 3e 3a f6 1c 3f 88 80 c0 3e
       0.24784581 0.48340455 0.6131321 0.37598062
000010 5b 11 05 3f 64 ee 19 3f d4 0c a9 3e 87 6c 35 3e
       0.5197961 0.6012938 0.330176 0.17717181
000020 69 de 8c 3f 5e 3d 93 3e df e9 88 3e 5a 17 fb 3e
       1.1005374 0.28757757 0.2674093 0.49041253
000030 44 5d d4 3e 2e ce ab 3e ef 39 9c 3e 06 c8 6a 3e
       0.41477406 0.3355574 0.3051295 0.22927865
000040 38 a6 c4 3e 1a d8 9b 3e c0 af d1 3e 59 c5 a8 3e
       0.38408065 0.3043831 0.409544 0.32963064
000050 37 d1 fd 3e 85 c7 a3 3e e4 c5 5a 3f fb 3f f4 3e
       0.4957368 0.3198816 0.8545821 0.47705063
000060 4d 62 b7 3e 49 98 82 3e 1d 46 ee 3e fc 10 cf 3e
       0.35817185 0.2550681 0.46537867 0.40442646
000070 fa c0 67 3e dd 7e c7 3e ca 23 7f 3e 05 78 ef 3e
       0.22632208 0.38963977 0.24915996 0.46771255

fc3.weight f4 [1, 32]
000000 36 91 c1 b8 bd cb 1d ba 0f e0 d7 b9 9e 4c 8f 3a
       -9.230005e-05 -0.0006019434 -0.00041174932 0.0010932868
000010 01 d2 0c ba 11 e2 b5 b8 07 15 fb 39 fd 69 19 3a
       -0.0005371869 -8.672861e-05 0.00047890117 0.00058522803
000020 4e 2f 0d ba 3f 99 92 ba 7f 45 10 3a 70 57 46 ba
       -0.0005385772 -0.0011184587 0.000550352 -0.000756613
000030 2a ce 32 ba cf ab 27 3a f2 59 03 ba 7f dc b0 b8
       -0.0006820882 0.0006396146 -0.00050106563 -8.4334046e-05
000040 50 0a c2 ba 07 a5 33 ba 03 9e 00 3a 97 65 46 39
       -0.0014804099 -0.0006852899 0.0004906358 0.00018920597
000050 48 2f 01 3a e2 24 f2 ba 99 ca d8 3a ea 3f 51 ba
       0.0004928005 -0.0018474127 0.0016539871 -0.0007982241
000060 b6 3b ef ba 67 cc a6 ba 12 29 38 b8 49 ff 8f b9
       -0.0018252048 -0.0012725712 -4.390727e-05 -0.00027465288
000070 18 e2 da b7 82 02 d7 b9 39 91 3f ba ef 44 96 38
       -2.6092908e-05 -0.00041009864 -0.00073077116 7.165397e-05

skip.weight f4 [1, 35]
000000 4b ca 03 3c 6a 27 eb 3d 99 64 a7 3d 61 c1 ab bc
       0.008043836 0.11482127 0.08173484 -0.020966234
000010 3c e4 c2 3d 2d 16 54 be 50 2c c8 bd b4 a8 a6 bd
       0.095161885 -0.20711584 -0.09774077 -0.08137646
000020 28 50 cd 3d 1e 00 c7 bd 2d ad 05 be 31 40 7f bd
       0.10025054 -0.09716819 -0.13054343 -0.062317077
000030 d0 0d b6 3c 83 d2 7d 3d 96 0b 9d 3d 5e 49 3f 3d
       0.022223383 0.061968338 0.076682255 0.046700828
000040 df 1b 02 b9 f8 b7 08 b8 3b c4 23 3e bc 8f c5 3c
       -0.00012408149 -3.259626e-05 0.15992825 0.02411639
000050 c8 0d 73 3a c9 cf 1b bd 5f ba f8 bb f1 13 84 3c
       0.0009271768 -0.038039956 -0.0075905765 0.01612279
000060 e1 4d 1e 3e 0b 63 8c bb e7 49 83 3a 29 99 06 3a
       0.15459396 -0.004284268 0.0010016531 0.0005134517
000070 9c b5 08 bc ac a3 d1 3c 2e 05 a8 bc 71 24 ed bd
       -0.00834408 0.02559074 -0.020510282 -0.11579216
000080 d9 59 45 3d e0 5e 1d bd 5b 6b c4 3d
       0.04818139 -0.038420558 0.09590789
