models/mlp_AMD_20260130.pt (torch, 28387 bytes, 18 tensors)

bn_input.weight f4 [35]
0.9834323 0.9790475 1.0011806 0.9668689 0.98623574 0.9700489 0.9877419 0.94706434
0.9742052 0.9719783 0.9768638 0.9627409 0.9903721 0.9751231 0.9780931 0.9815111
1.0642993 1.055512 0.9831824 0.9968335 1.0123167 0.98456347 1.0245048 0.9551225
0.96521676 0.9423367 0.9538424 0.97670203 1.0002468 0.9900141 0.98458356 0.96606034
1.0105643 0.9934297 0.96438813
00000000: 38c2 7b3f dba2 7a3f b026 803f b884 773f
00000010: f279 7c3f 2055 783f a7dc 7c3f cf72 723f
00000020: 8365 793f 92d3 783f bf13 7a3f 3076 763f
00000030: 0789 7d3f aba1 793f 4f64 7a3f 5044 7b3f
00000040: f63a 883f 041b 873f d7b1 7b3f 7b30 7f3f
00000050: 9893 813f 5a0c 7c3f f922 833f e882 743f
00000060: 7218 773f fa3c 713f 042f 743f 2509 7a3f
00000070: 1608 803f 9071 7d3f ab0d 7c3f bb4f 773f
00000080: 2c5a 813f 6951 7e3f 24e2 763f

bn_input.bias f4 [35]
-9.9414785e-05 2.833594e-05 9.960006e-05 0.00067565934 -0.00022802131 0.0002648568 -0.00018145208 0.00029044333
-0.00031591186 -7.755644e-05 -0.00019766873 0.00030425764 0.00021531788 0.00019901728 -3.425229e-05 -0.00021283016
-0.0010775769 0.00043094534 -2.036425e-05 -0.0003842177 -0.00028305824 3.987891e-05 0.00011127484 -4.9105507e-05
-0.00016483283 -0.00019094182 -0.0004945693 0.00016079286 2.5685042e-05 -0.0007714294 0.00025378074 -0.0002412309
-0.00021555371 -0.0005430471 -0.00021834651
00000000: e87c d0b8 f8b2 ed37 60e0 d038 bb1e 313a
00000010: 0119 6fb9 7adc 8a39 2c44 3eb9 a546 9839
00000020: f9a0 a5b9 cca5 a2b8 4c45 4fb9 c584 9f39
00000030: f4c6 6139 4baf 5039 1eaa 0fb8 292b 5fb9
00000040: 7b3d 8dba 81f0 e139 e5d3 aab7 d470 c9b9
00000050: 6f67 94b9 a743 2738 3a5c e938 a3f6 4db8
00000060: fad6 2cb9 8e37 48b9 fca5 01ba 819a 2839
00000070: 3576 d737 c039 4aba e00d 8539 edf2 7cb9
00000080: 4206 62b9 465b 0eba f2f3 64b9

bn_input.running_mean f4 [35]
0.010925862 0.017072937 0.03192832 0.0712143 0.008228704 0.011534291 0.020882782 0.040466525
0.030247305 0.03093836 0.031566545 0.032196656 0.0035194315 0.0070306836 0.012880392 0.029676743
52.39966 52.68073 0.0026324315 0.002136047 0.00049638475 -0.10362204 0.11566656 0.22103707
0.04447102 1.0091845 0.022282813 0.5227162 0.5251106 0.5244569 0.52217364 0.010925862
0.017072937 0.03192832 0.0712143
00000000: 6302 333c 8bdc 8b3c 45c7 023d ced8 913d
00000010: b0d1 063c 53fa 3c3c 5e12 ab3c 3ac0 253d
00000020: 32c9 f73c 7272 fd3c ec4b 013d a4e0 033d
00000030: 43a6 663b a661 e63b 4808 533c a41c f33c
00000040: 4099 5142 11b9 5242 df84 2c3b ecfc 0b3b
00000050: d11f 023a cb37 d4bd 97e2 ec3d 8b57 623e
00000060: 3f27 363d f52c 813f 728a b63c bbd0 053f
00000070: a66d 063f cf42 063f 2cad 053f 6302 333c
00000080: 8bdc 8b3c 45c7 023d ced8 913d

bn_input.running_var f4 [35]
0.005392032 0.011236627 0.02240664 0.063492894 0.0052858293 0.010956295 0.021369595 0.056735054
0.00020211961 0.00012305805 7.809607e-05 4.247855e-05 0.001282938 0.0031598702 0.0069219363 0.018286133
311.64328 152.49915 0.0012726907 0.00113281 0.00013310213 0.010714699 0.0075530373 0.008922406
0.00012973725 0.11567147 0.08020922 0.09867467 0.10160023 0.09991681 0.08573987 0.005392032
0.011236627 0.02240664 0.063492894
00000000: a5af b03b d419 383c 218e b73c 9008 823d
00000010: c034 ad3b 0882 333c 4a0f af3c 0463 683d
00000020: 12f0 5339 2509 0139 82c7 a338 ff2a 3238
00000030: 4228 a83a d315 4f3b 69d1 e23b cdcc 953c
00000040: 57d2 9b43 c87f 1843 6ad0 a63a cc7a 943a
00000050: 5591 0b39 b48c 2f3c 787f f73b 482f 123c
00000060: 140a 0839 2ae5 ec3d bb44 a43d f215 ca3d
00000070: c813 d03d 2fa1 cc3d 6398 af3d a5af b03b
00000080: d419 383c 218e b73c 9008 823d

fc1.weight f4 [64, 35]
0.092392914 -0.022130607 -0.027788155 0.07207634 -0.045304295 0.034784574 0.09492615 0.1297594
-0.00067062705 -0.07299675 0.056633286 -0.17737311 0.0358094 0.06117583 0.082907334 0.09970805
-0.18129186 0.09537984 0.0528689 -0.1771556 -0.08685601 -0.09311837 -0.045216907 -0.09228115
0.052473318 0.100689 -0.10357777 -0.098215155 -0.035958853 0.0110841915 -0.09414581 -0.07252734
0.014627101 -0.0022778714 -0.13747606 -0.039440833 0.1278558 -0.047251612 -0.11053215 -0.060388193
0.02131606 -0.07023476 -0.092158504 0.01112867 0.12065126 0.010329086 0.058264002 -0.095575094
0.10229729 -0.018662607 0.014278097 -0.04522064 -0.085104704 -0.090937026 0.027401095 -0.039690677
0.12137537 0.15253158 0.12137658 0.023791524 -0.12708777 0.054018904 -0.1438968 0.13051116
0.015920252 -0.07829548 0.11895469 0.1459995 -0.0056896727 0.05448868 0.08891649 0.008472699
-0.005889084 0.16433844 -0.009700171 0.05528937 0.008992419 -0.064948104 -0.12554061 0.10208335
-0.15952365 0.10178558 0.11018161 -0.08664149 -0.13951363 -0.14543976 -0.07532573 0.19818951
0.018488387 -0.121089645 -0.021857128 -0.10711607 0.02747715 -0.122798696 0.009335943 -0.063314475
0.0528621 -0.019162435 -0.05786625 -0.011132669 0.014419271 0.103979886 0.105687015 0.047121402
-0.15892324 -0.12424301 0.13714384 0.11616407 -0.097106464 0.073878326 -0.034188356 -0.16544878
-0.12180308 0.07000327 -0.09633717 -0.036288973 0.1706408 0.0329042 -0.14946471 -0.1261535
-0.12579799 0.007259415 -0.14857654 -0.12699184 -0.11418553 -0.014579884 -0.076604456 -0.03695984
-0.0589596 0.09219867 0.009471603 -0.1009866 0.10528985 0.14264822 0.060495622 -0.16236828
-0.035880864 0.13140176 -0.16100697 -0.06979028 -0.050204877 0.15881322 0.16439463 -0.11011437
-0.021165358 0.08237475 0.13541146 -0.0936355 0.003922194 0.13854653 0.092287235 -0.12152204
0.044043098 -0.029851478 0.043767568 0.0940118 -0.1940121 0.08603278 0.118819274 0.06876337
-0.034032796 -0.14795141 -0.014380826 0.14384238 -0.03725762 -0.07880143 0.07996005 0.12322203
-0.11652015 0.1531781 0.0018696379 -0.09949735 -0.15146278 -0.16517273 -0.14908528 -0.0087761665
0.08398623 -0.058216535 0.10167014 0.11228103 0.050277352 0.0065602087 0.15052313 -0.062556304
0.03985079 0.015703782 -0.1454986 0.14723836 0.1065022 0.034043353 -0.019822678 -0.19434334
-0.109093614 0.116114095 -0.004682649 -0.17946495 0.063909106 -0.0009235614 0.11162902 0.04969398
0.11837943 0.10417979 -0.12620847 -0.12957546 0.07957348 0.024306757 -0.009402528 0.099395745
0.12549889 0.12554055 -0.13569447 0.1282313 -0.07354717 -0.048728317 0.024139248 0.036885522
-0.15116546 -0.07558595 -0.052205313 -0.051381014 -0.0110884765 0.06347947 0.16888604 0.0034302862
-0.16409034 0.17938115 -0.19153032 0.08586862 0.05566187 -0.10023065 -0.09299839 -0.075405285
-0.028845116 0.15960245 0.09903459 -0.041493203 -0.046455245 -0.1282184 -0.12039166 0.11352808
-0.11027228 -0.07762624 0.13690922 0.13649064 -0.043337815 0.03557682 0.018902883 -0.0028314528
0.053876854 -0.15934007 -0.00047572626 -0.09681707 -0.015402156 0.11340048 -0.07997472 0.12561303
00000000: 7f38 bd3d 3f4b b5bc fca3 e3bc c39c 933d
00000010: ff90 39bd 457a 0e3d a468 c23d a6df 043e
00000020: 05cd 2fba 527f 95bd 4ef8 673d 4ca1 35be
00000030: e1ac 123d 8293 7a3d 52cb a93d bc33 cc3d
00000040: 93a4 39be 8156 c33d 0f8d 583d 4768 35be
00000050: 90e1 b1bd d8b4 bebd 5d35 39bd e6fd bcbd
00000060: 43ee 563d 0936 ce3d 9520 d4bd 0725 c9bd
00000070: 9749 13bd 789a 353c 85cf c0bd 3789 94bd
00000080: 82a6 6f3c 5748 15bb 86c6 0cbe b68c 21bd
00000090: a1ec 023e e88a 41bd ae5e e2bd 9c59 77bd
000000a0: 059f ae3c 3ed7 8fbd 99bd bcbd 0655 363c
000000b0: 0218 f73d 543b 293c 3ca6 6e3d e0bc c3bd
000000c0: 3e81 d13d 53e2 98bc aeee 693c 4739 39bd
000000d0: 604b aebd 313d babd 4378 e03c b192 22bd
000000e0: a693 f83d 3d31 1c3e 4994 f83d 71e6 c23c
000000f0: 4c23 02be ed42 5d3d af59 13be b8a4 053e
00000100: 306b 823c 6159 a0bd 849e f33d e580 153e
00000110: 6f70 babb 862f 5f3d d919 b63d 13d1 0a3c
00000120: 38f9 c0bb 5648 283e 77ed 1ebc 1b77 623d
00000130: f054 133c 8303 85bd b88d 00be 1311 d13d
00000140: 2b5a 23be f574 d03d e5a6 e13d 1871 b1bd
00000150: a9dc 0ebe 29ee 14be 6044 9abd 31f2 4a3e
00000160: f574 973c d9fd f7bd b80d b3bc ac5f dbbd
00000170: c317 e13c e27d fbbd c8f5 183c 05ab 81bd
00000180: ee85 583d 8afa 9cbc 2905 6dbd cc65 36bc
00000190: ce3e 6c3c 68f3 d43d 6f72 d83d 5f02 413d
000001a0: c6bc 22be 1f73 febd 6f6f 0c3e 6ee7 ed3d
000001b0: c1df c6bd 854d 973d 1709 0cbd 686b 29be
000001c0: e573 f9bd e05d 8f3d 6c4c c5bd bfa3 14bd
000001d0: 76bc 2e3e 8ec6 063d 470d 19be 622e 01be
000001e0: 30d1 00be 63e0 ed3b 7324 18be 260a 02be
000001f0: 1ada e9bd 77e0 6ebc cce2 9cbd 3463 17bd
00000200: 9f7f 71bd a8d2 bc3d c82e 1b3c 10d2 cebd
00000210: 34a2 d73d 6012 123e 42ca 773d df43 26be
00000220: d0f7 12bd 2f8e 063e 03df 24be 35ee 8ebd
00000230: a1a3 4dbd ef9f 223e 1157 283e a583 e1bd
00000240: f962 adbc 18b4 a83d 4da9 0a3e f8c3 bfbd
00000250: bf85 803b 24df 0d3e 1701 bd3d 8ce0 f8bd
00000260: 8966 343d 168b f4bc 9f45 333d 4289 c03d
00000270: 1cab 46be f431 b03d 8557 f33d cfd3 8c3d
00000280: f965 0bbd 9380 17be 8e9d 6bbc 6b4b 133e
00000290: 729b 18bd a562 a1bd 18c2 a33d d55b fc3d
000002a0: 1ea2 eebd b8da 1c3e a30e f53a 44c5 cbbd
000002b0: 0f19 1bbe 0a23 29be d0a9 18be e9c9 0fbc
000002c0: f900 ac3d 7674 6ebd 6f38 d03d 99f3 e53d
000002d0: a0ef 4d3d 05f7 d63b bc22 1a3e 851d 80bd
000002e0: 953a 233d 38a5 803c 96fd 14be a7c5 163e
000002f0: d31d da3d 0b71 0b3d 2b63 a2bc f101 47be
00000300: 796c dfbd 3acd ed3d e870 99bb a9c5 37be
00000310: c7e2 823d 281b 72ba c19d e43d ea8b 4b3d
00000320: ea70 f23d 375c d53d cb3c 01be 6eaf 04be
00000330: 6cf7 a23d f71e c73c 100d 1abc ff8f cb3d
00000340: c882 003e b48d 003e 7ef3 0abe 114f 033e
00000350: e69f 96bd 5897 47bd acbf c53c 4615 173d
00000360: 1ecb 1abe cecc 9abd 3dd5 55bd e674 52bd
00000370: 71ac 35bc 8601 823d 76f0 2c3e a7ce 603b
00000380: 4c07 28be b1af 373e 8620 44be e3db af3d
00000390: b3fd 633d ba45 cdbd f175 bebd 166e 9abd
000003a0: 984c ecbc d36e 233e a6d2 ca3d c7f4 29bd
000003b0: db47 3ebd af4b 03be e78f f6bd 6981 e83d
000003c0: 6fd6 e1bd 82fa 9ebd ee31 0c3e 34c4 0b3e
000003d0: fe82 31bd 00b9 113d 38da 9a3c e58f 39bb
000003e0: faad 5c3d 0b2a 23be e66a f9b9 0748 c6bd
000003f0: 5359 7cbc 833e e83d c9c9 a3bd b4a0 003e

fc1.bias f4 [64]
0.0643976 -0.15699723 0.051127866 -0.15587698 -0.0833798 -0.032118004 -0.050297298 -0.11872437
0.0820901 -0.0028922856 -0.10207037 -0.14170928 -0.022142095 -0.14054583 0.13510586 0.03644443
-0.054928314 0.08435218 0.04468241 -0.0606795 -0.1370662 -0.01694062 0.059166644 -0.15836848
0.018780045 -0.11604669 -0.019302081 -0.13108338 -0.003105102 -0.08590597 -0.029898388 0.036059197
-0.011912342 0.05157708 -0.14056432 0.13287945 -0.01545043 0.104255214 -0.10409997 0.15084389
-0.019138321 -0.06934031 0.12532759 -0.101274386 0.09210643 0.094463535 -0.082864724 0.014716597
-0.04920401 0.10341916 0.09600782 0.12861706 -0.016828489 -0.094276704 -0.05689045 -0.005260097
-0.12229189 -0.052458942 0.084690444 0.059984002 0.110506594 -0.08306807 -0.16255032 -0.052056253
00000000: e4e2 833d e2c3 20be 746b 513d 379e 1fbe
00000010: 07c3 aabd 2b8e 03bd 8a04 4ebd c325 f3bd
00000020: db1e a83d 808c 3dbb 450a d1bd 3d1c 11be
00000030: 5763 b5bc 3feb 0fbe 3159 0a3e c146 153d
00000040: 83fc 60bd d6c0 ac3d e704 373d 118b 78bd
00000050: 155b 0cbe 0ec7 8abc b958 723d 592b 22be
00000060: 9cd8 993c e3a9 edbd 661f 9ebc b93a 06be
00000070: f87e 4bbb 78ef afbd 77ed f4bc cfb2 133d
00000080: fc2b 43bc 7d42 533d 18f0 0fbe 8d11 083e
00000090: cd23 7dbc c283 d53d 5d32 d5bd d276 1a3e
000000a0: f8c7 9cbc 4b02 8ebd e055 003e f268 cfbd
000000b0: 4ca2 bc3d 1976 c13d fbb4 a9bd e21d 713c
000000c0: 258a 49bd 6dcd d33d bf9f c43d 31b4 033e
000000d0: e6db 89bc 2514 c1bd f605 69bd e45c acbb
000000e0: 2c74 fabd 30df 56bd 2f72 ad3d c9b1 753d
000000f0: 4851 e23d 981f aabd 9773 26be f038 55bd

bn1.weight f4 [64]
0.9987935 1.0062759 0.9926994 1.009206 0.97268623 0.9707673 1.0070683 0.9899906
1.0030922 0.9826755 1.0149746 0.9908291 0.98839504 0.98124033 0.9891274 0.99393326
0.96365047 0.99857134 0.98576844 1.0131121 0.9570964 0.99565893 0.99260944 0.9941252
0.9665646 0.9847474 0.98660713 0.97892606 0.97629017 1.032877 1.000517 0.97565985
0.9579929 1.0326663 1.009612 1.0126795 0.9918081 1.009855 1.007799 0.96131724
1.0141164 0.9535493 0.97255945 1.0025933 0.9654893 0.97099406 0.9641251 0.98481584
0.986336 0.98271644 0.99242973 1.0283476 0.9671609 0.99268913 0.96666497 0.9879082
0.99051386 0.98273504 1.0176201 1.0198711 0.978608 0.9920887 1.0072645 0.9559502
00000000: eeb0 7f3f a6cd 803f 8c21 7e3f aa2d 813f
00000010: f701 793f 3584 783f 9de7 803f 0670 7d3f
00000020: 5365 803f 9f90 7b3f b0ea 813f faa6 7d3f
00000030: 7507 7d3f 9132 7b3f 7437 7d3f 6972 7e3f
00000040: ccb1 763f 5fa2 7f3f 525b 7c3f a8ad 813f
00000050: 4504 753f 81e3 7e3f a71b 7e3f fd7e 7e3f
00000060: c770 773f 6818 7c3f 4992 7c3f e69a 7a3f
00000070: 27ee 793f 5035 843f f110 803f d8c4 793f
00000080: 063f 753f 692e 843f f73a 813f 7b9f 813f
00000090: 23e7 7d3f ee42 813f 8fff 803f e318 763f
000000a0: 91ce 813f cf1b 743f a8f9 783f fa54 803f
000000b0: 4f2a 773f 1193 783f e7d0 763f e41c 7c3f
000000c0: 8480 7c3f 4e93 7b3f e00f 7e3f e5a0 833f
000000d0: db97 773f e020 7e3f 5b77 773f 8de7 7c3f
000000e0: 5192 7d3f 8694 7b3f 6041 823f 238b 823f
000000f0: 0e86 7a3f 86f9 7d3f 0bee 803f 27b9 743f

bn1.bias f4 [64]
0.0061020544 0.016832639 0.013626354 0.0051728394 -0.04007192 -0.017331947 0.019196032 -0.028909503
0.0005165742 -0.008428498 0.035595726 -0.0010848766 -0.004701571 -0.015128758 -0.011772425 -0.0038183816
0.0065146163 0.018551566 0.023502521 0.006629992 -0.040244833 0.0013951387 -0.0073696133 0.016517736
-0.0460221 -0.030049572 0.0033507538 -0.0075226743 -0.006062178 0.045105953 -0.0012799354 -0.009703135
-0.016479682 0.025643963 0.03875504 0.024346631 0.008017874 -0.012941514 0.019770833 -0.029656356
0.0041282168 -0.03536982 -0.021940725 0.0032203204 -0.0070966003 -0.014931625 -0.019547908 -0.012484117
0.0089204945 -0.028917834 -0.016863609 0.017300947 -0.010970409 -0.0104428325 -0.014765672 0.0008764814
-0.022668047 -0.020532899 0.017204365 0.012068357 -0.024558878 -0.008120455 -0.004719538 -0.024924535
00000000: bef3 c73b 9ae4 893c 1241 5f3c ec80 a93b
00000010: 7422 24bd bafb 8dbc ff40 9d3c 9fd3 ecbc
00000020: b56a 073a af17 0abc d3cc 113d 6b32 8eba
00000030: a30f 9abb 9cde 77bc 21e1 40bc d03d 7abb
00000040: 9078 d53b 74f9 973c 5c88 c03c 6740 d93b
00000050: c4d7 24bd 16dd b63a cc7c f1bb 3450 873c
00000060: ab81 3cbd 852a f6bc 5298 5b3b c480 f6bb
00000070: 3ca5 c6bb 05c1 383d 81c3 a7ba e6f9 1ebc
00000080: 6600 87bc 4a13 d23c 9bbd 1e3d 9672 c73c
00000090: 675d 033c a508 54bc 71f6 a13c e3f1 f2bc
000000a0: fe45 873b f2df 10bd 09bd b3bc 030c 533b
000000b0: 998a e8bb c6a3 74bc ef22 a0bc 2f8a 4cbc
000000c0: 4427 123c 18e5 ecbc 8d25 8abc b7ba 8d3c
000000d0: 3bbd 33bc 6a18 2bbc b8eb 71bc acc3 653a
000000e0: 57b2 b9bc 9c34 a8bc 2bf0 8c3c 5cba 453c
000000f0: b32f c9bc a80b 05bc 5ba6 9abb 8a2e ccbc

bn1.running_mean f4 [64]
0.064760454 -0.15717596 0.051545024 -0.15588553 -0.08327524 -0.032065544 -0.050176345 -0.11905414
0.08233865 -0.0033232304 -0.101621985 -0.14151765 -0.022062896 -0.14042553 0.13489524 0.036565885
-0.05495707 0.08400256 0.044853065 -0.060731456 -0.13711658 -0.016829066 0.058957398 -0.15826634
0.018561611 -0.11601098 -0.01940241 -0.1309925 -0.0032271994 -0.08622061 -0.029723851 0.036020685
-0.011630894 0.051829375 -0.14065365 0.13334092 -0.015534554 0.10388154 -0.104496345 0.15091103
-0.01937479 -0.0694526 0.1256126 -0.10101393 0.092182934 0.09427925 -0.08291988 0.014708452
-0.049488958 0.10375225 0.09610459 0.12835422 -0.017077902 -0.09425516 -0.05728277 -0.0052429913
-0.122232445 -0.052315645 0.08484396 0.059919935 0.110303 -0.08290282 -0.16273059 -0.05219341
00000000: 21a1 843d bcf2 20be e020 533d 75a0 1fbe
00000010: 368c aabd 2957 03bd b685 4dbd a8d2 f3bd
00000020: 2ba1 a83d 8eca 59bb 301f d0bd 01ea 10be
00000030: 3fbd b4bc b6cb 0fbe fa21 0a3e 1cc6 153d
00000040: aa1a 61bd 8909 ac3d d9b7 373d 8cc1 78bd
00000050: 4a68 0cbe 1cdd 89bc 507d 713d 9210 22be
00000060: 850e 983c 2a97 edbd cef1 9ebc e622 06be
00000070: 6c7f 53bb 6e94 b0bd 6f7f f3bc 6d8a 133d
00000080: 818f 3ebc 0a4b 543d 8307 10be 868a 083e
00000090: a484 7ebc d8bf d43d 2e02 d6bd 6c88 1a3e
000000a0: e1b7 9ebc 2a3d 8ebd 97a0 003e 64e0 cebd
000000b0: 68ca bc3d 7b15 c13d e6d1 a9bd b8fb 703c
000000c0: efb4 4abd 0f7c d43d 7cd2 c43d 4a6f 033e
000000d0: f5e6 8bbc d908 c1bd 56a1 6abd 66cd abbb
000000e0: 0155 fabd ee48 56bd acc2 ad3d 9b6e 753d
000000f0: 8ae6 e13d f4c8 a9bd d9a2 26be c2c8 55bd

bn1.running_var f4 [64]
0.078605495 0.23830998 0.06885985 1.2901663 0.19585824 0.4041707 0.29646397 0.087904036
0.3381279 0.23525216 0.16396454 0.21149296 0.49608603 0.12667924 0.82505095 0.23113145
0.24334085 0.06641908 0.5679752 0.08043191 0.62875533 0.25796136 0.43157876 0.6790496
0.12932728 0.24370456 0.43663603 0.62862575 0.21946876 0.29663256 0.28489453 0.13807069
0.15745 0.04816644 0.2140137 0.10111669 0.11728938 0.1560635 0.20807606 0.30611607
1.0906308 0.9947608 0.24743426 0.16096199 0.19622977 0.17554003 0.775499 0.19586182
0.450972 0.23191127 0.18464302 0.6804827 0.113624565 0.2980595 0.15088451 0.2367968
0.1750467 0.19793233 0.12364799 0.18646684 0.37329623 0.3796715 0.49610615 0.54598856
00000000: ebfb a03d 8807 743e 6506 8d3d 2b24 a53f
00000010: 108f 483e 76ef ce3e 20ca 973e 0807 b43d
00000020: 1a1f ad3e f1e5 703e 52e6 273e 9c91 583e
00000030: fdfe fd3e 34b8 013e 8a36 533f b9ad 6c3e
00000040: 582e 793e ba06 883d d366 113f 7cb9 a43d
00000050: 1cf6 203f 8313 843e e4f7 dc3e 32d6 2d3f
00000060: 5f6e 043e b08d 793e c28e df3e 9eed 203f
00000070: 6bbc 603e 39e0 973e b2dd 913e 6762 0d3e
00000080: 933a 213e 2c4a 453d 6826 5b3e 4416 cf3d
00000090: 6a35 f03d 1ccf 1f3e e411 553e 3fbb 9c3e
000000a0: ca99 8b3f a5a8 7e3f 685f 7d3e 38d3 243e
000000b0: 75f0 483e c4c0 333e 1a87 463f 0090 483e
000000c0: cde5 e63e 267a 6d3e 0f13 3d3e 1d34 2e3f
000000d0: ffb3 e83d 419b 983e 7881 1a3e dc7a 723e
000000e0: 713f 333e c6ae 4a3e 283b fd3d 2af1 3e3e
000000f0: af20 bf3e 4e64 c23e a001 fe3e e8c5 0b3f

fc2.weight f4 [32, 64]
-0.13605425 0.034379233 0.051980853 -0.04148589 -0.10488648 -0.12564746 0.09813225 0.06722224
0.10135536 0.0672168 -0.077500075 0.014418001 -0.10268785 -0.12321709 0.06602233 -0.118377656
0.09856793 0.0085951565 0.08341575 0.04809973 0.12913106 0.058155086 -0.04219607 -0.010972622
0.11825882 0.048080582 0.10112652 0.084227435 -0.11426696 -0.03348778 0.006191632 0.038423073
0.021052979 0.057269983 -0.07294774 -0.025377529 -0.033340108 -0.055036247 -0.074217536 -0.07039041
0.1219285 -0.06148728 0.08660825 0.11956858 -0.075618975 -0.009376991 0.08090612 0.07758951
-0.021924803 0.045640852 -0.09301709 -0.106331274 -0.06198733 0.083365865 -0.11874574 0.1134824
-0.10975975 0.0044413116 -0.090530396 -0.13024317 0.06999899 -0.061922826 -0.08057918 -0.054152105
-0.080162704 0.045320597 -0.034222707 0.08840777 0.04528998 0.057733003 0.056418125 0.14025798
-0.010751389 -0.004371546 0.10168126 -0.10727148 0.030558968 0.09554285 0.117343865 0.06648799
-0.044928785 0.08553205 -0.066050656 0.12036215 0.0033015301 -0.041367985 0.03597264 0.007088056
0.022906184 -0.07844021 -0.016836315 0.016390111 0.00083225913 -0.034181464 0.13019204 0.027221609
-0.0016463943 -0.07312943 -0.025780478 -0.15282807 0.009486871 0.1302148 -0.04694859 -0.09806085
-0.13147573 -0.08143752 -0.029484965 -0.1344866 0.072683185 -0.029292814 0.06670424 -0.015177348
0.1266171 -0.004019727 -0.094071425 -0.053634237 0.09051892 0.08566342 0.028773708 0.012830498
-0.062616415 0.0540023 -0.111896425 -0.020189429 0.06924098 -0.11249736 -0.04472157 -0.05463923
0.010593922 -0.029430872 -0.052641172 -0.06814385 0.034726493 0.00091004034 -0.08250655 0.019176876
-0.039349593 -0.074439995 -0.06009945 0.05437165 0.10780238 -0.020973418 -0.039746422 -0.07159995
-0.046039373 0.091205955 0.042170946 0.0936166 -0.10941129 0.12854095 -0.0070424923 0.07699322
-0.002769307 0.011793401 -0.094437845 -0.004841433 -0.03145899 0.086324826 -0.022746528 0.09138295
-0.093373746 -0.035908636 0.094749294 -0.06738902 0.080987856 -0.0002701833 -0.0843418 0.05536978
0.068650596 0.01260004 -0.08342659 -0.038510114 -0.1005864 0.035748508 0.076790676 -0.025536785
0.04690282 0.0028613035 -0.033032734 0.047374036 -0.050008066 -0.02134991 -0.018593183 0.13594058
-0.12139993 0.0013339954 -0.13866185 -0.09193022 -0.08212208 -0.029914109 -0.09428512 0.010852962
-0.06873314 0.0004991865 0.064526334 0.026015736 0.06806734 -0.07598292 -0.11490675 -0.010810201
0.01059088 0.029187283 -0.058392193 -0.01409654 0.008868459 -0.10502271 -0.1306158 0.05095312
0.03704551 0.11205917 -0.1056079 0.061691653 -0.09428579 0.11282249 -0.04669689 0.025927376
-0.020521425 0.03137156 -0.082932495 0.013206792 0.07249021 -0.014354816 0.10027869 0.03387148
0.05239382 -0.0800484 -0.013783026 0.026866911 0.00041905625 0.061485168 -0.11070483 -0.048715547
0.104285106 0.01581405 0.016555928 0.0833515 0.11565124 0.120997824 0.054781802 -0.084549375
0.04962601 -0.08489632 -0.04985324 -0.1038155 0.08003984 0.09201256 0.050592143 -0.028750738
-0.07404151 0.094240285 -0.012752681 0.051095456 -0.12661451 -0.035141505 0.02309229 -0.09568116
00000000: ce51 0bbe 3dd1 0c3d e0e9 543d 1ced 29bd
00000010: b9ce d6bd baa9 00be 90f9 c83d d0ab 893d
00000020: 6693 cf3d f6a8 893d 5cb8 9ebd 7b39 6c3c
00000030: 024e d2bd 3e59 fcbd b736 873d fc6f f2bd
00000040: fcdd c93d b3d2 0c3c e0d5 aa3d 3904 453d
00000050: ef3a 043e 0734 6e3d c9d5 2cbd 83c6 33bc
00000060: ae31 f23d 25f0 443d 6c1b cf3d 6f7f ac3d
00000070: cc04 eabd 7b2a 09bd 2ce3 ca3b 8361 1d3d
00000080: 4c77 ac3c ee93 6a3d a065 95bd 89e4 cfbc
00000090: a38f 08bd b06d 61bd 5dff 97bd d928 90bd
000000a0: a6b5 f93d 16da 7bbd ab5f b13d 5fe0 f43d
000000b0: 1fde 9abd f3a1 19bc 1cb2 a53d 40e7 9e3d
000000c0: a59b b3bc e7f1 3a3d be7f bebd 36c4 d9bd
000000d0: 6de6 7dbd b9bb aa3d f730 f3bd 7669 e83d
000000e0: b8c9 e0bd 6c88 913b 0068 b9bd 775e 05be
000000f0: a15b 8f3d caa2 7dbd b206 a5bd 99ce 5dbd
00000100: 582c a4bd 17a2 393d 1c2d 0cbd 220f b53d
00000110: fc81 393d 7179 6c3d b116 673d ca9f 0f3e
00000120: 9826 30bc 303f 8fbb 443e d03d 26b1 dbbd
00000130: cd56 fa3c f8ab c33d fb51 f03d db2a 883d
00000140: 3f07 38bd 6d2b af3d 9145 87bd 6e80 f63d
00000150: 7c5e 583b 7a71 29bd 0c58 133d ec42 e83b
00000160: c0a5 bb3c 43a5 a0bd 50ec 89bc 8e44 863c
00000170: f72b 5a3a dd01 0cbd 1051 053e daff de3c
00000180: d3cb d7ba e2c4 95bd 9531 d3bc f67e 1cbe
00000190: d26e 1b3c 0757 053e 2a4d 40bd 20d4 c8bd
000001a0: 93a1 06be b7c8 a6bd 748a f1bc dbb6 09be
000001b0: ecda 943d 7cf7 efbc 3c9c 883d 69aa 78bc
000001c0: eaa7 013e eab7 83bb 85a8 c0bd 93af 5bbd
000001d0: fc61 b93d 4e70 af3d d7b6 eb3c 0237 523c
000001e0: 093d 80bd 8431 5d3d f429 e5bd 4d64 a5bc
000001f0: 37ce 8d3d 0465 e6bd f72d 37bd 63cd 5fbd
00000200: 2192 2d3c 0319 f1bc 459e 57bd 018f 8bbd
00000210: 5e3d 0e3d c68f 6e3a 32f9 a8bd d318 9d3c
00000220: 0a2d 21bd ff73 98bd d72a 76bd cfb4 5e3d
00000230: 7fc7 dc3d 72d0 abbc 25cd 22bd ffa2 92bd
00000240: c893 3cbd 30ca ba3d 71bb 2c3d 0fba bf3d
00000250: 0713 e0bd 3da0 033e b5c4 e6bb 9fae 9d3d
00000260: 437d 35bb 1c39 413c a168 c1bd e2a4 9ebb
00000270: 24db 00bd 12cb b03d ed56 babc fc26 bb3d
00000280: bc3a bfbd ef14 13bd eb0b c23d 4103 8abd
00000290: f6dc a53d 63a7 8db9 65bb acbd 6ccb 623d
000002a0: af98 8c3d 6670 4e3c 8fdb aabd c8bc 1dbd
000002b0: 3e00 cebd 076d 123d 6e44 9d3d 8532 d1bc
000002c0: 2c1d 403d b584 3b3b 554d 07bd 470b 423d
000002d0: 42d5 4cbd 02e6 aebc bb50 98bc 0234 0b3e
000002e0: 87a0 f8bd 75d9 ae3a 5ffd 0dbe e945 bcbd
000002f0: 9f2f a8bd 6f0e f5bc 8f18 c1bd 9fd0 313c
00000300: f6c3 8cbd d7db 023a 6226 843d f41e d53c
00000310: e466 8b3d ef9c 9bbd 3b54 ebbd 451d 31bc
00000320: 5f85 2d3c 2b1a ef3c a72c 6fbd 2df5 66bc
00000330: 034d 113c 2616 d7bd 26c0 05be 38b4 503d
00000340: 08bd 173d 477f e53d f448 d8bd 63b0 7c3d
00000350: e918 c1bd 7a0f e73d 3d45 3fbd a665 d43c
00000360: 8c1c a8bc 777f 003d 83d8 a9bd 4d61 583c
00000370: bf75 943d 7630 6bbc ea5e cd3d d2bc 0a3d
00000380: e79a 563d 6af0 a3bd 33d2 61bc ff17 dc3c
00000390: c7b4 db39 dfd7 7b3d 37b9 e2bd f489 47bd
000003a0: 6e93 d53d 778c 813c 4ca0 873c 31b4 aa3d
000003b0: 8fda ec3d b5cd f73d e262 603d 3928 adbd
000003c0: a544 4b3d 1fde adbd e932 4cbd 399d d4bd
000003d0: edeb a33d 1571 bc3d b539 4f3d ab86 ebbc
000003e0: 13a3 97bd 0d01 c13d 9ff0 50bc 7849 513d
000003f0: 3ca7 01be 8af0 0fbd 0b2c bd3c 7cf4 c3bd

fc2.bias f4 [32]
-0.10359352 0.096991405 0.09654685 -0.052947506 -0.07854225 -0.029573748 -0.10797356 0.042743772
-0.11635701 -0.10225323 0.037096173 -0.06766501 0.058941457 -0.039047632 0.0030364715 0.0606827
0.084437415 -0.020357363 0.07816779 0.05165042 -0.0013192677 0.028329514 0.067090325 0.041657485
-0.03665028 0.034930054 0.10831515 -0.035623338 0.106182225 -0.04619684 0.0009121685 -0.03813925
00000000: d728 d4bd 6ea3 c63d 5bba c53d 7cdf 58bd
00000010: c2da a0bd a544 f2bc 3e21 ddbd 1814 2f3d
00000020: 964c eebd 246a d1bd 28f2 173d f493 8abd
00000030: 996c 713d 69f0 1fbd 8aff 463b 6c8e 783d
00000040: 86ed ac3d 7cc4 a6bc 6f16 a03d 648f 533d
00000050: 47eb acba 4c13 e83c a766 893d 0aa1 2a3d
00000060: 9b1e 16bd d112 0f3d 55d4 dd3d c7e9 11bd
00000070: 1176 d93d e638 3dbd 981e 6f3a e737 1cbd

bn2.weight f4 [32]
0.9326269 0.9751618 0.8841174 0.9615854 0.8969857 0.96996576 0.9533123 0.8767764
0.96876925 0.9102555 0.9275527 0.92031735 0.8796998 0.9000619 0.9053886 0.93539286
0.885656 0.9521691 0.9261666 0.9426688 0.9716584 0.9213326 0.8819225 0.959441
0.94713205 0.91698486 0.94658613 0.9591181 0.9199525 0.9230505 0.9492769 0.91434693
00000000: a3c0 6e3f 34a4 793f 8555 623f 762a 763f
00000010: dba0 653f ad4f 783f 460c 743f 6b74 603f
00000020: 4301 783f 8106 693f 1874 6d3f eb99 6b3f
00000030: 0234 613f 756a 663f 8cc7 673f e875 6f3f
00000040: 5aba 623f 5bc1 733f 4119 6d3f be52 713f
00000050: 9bbe 783f 74dc 6b3f acc5 613f ed9d 753f
00000060: 3f77 723f 85bf 6a3f 7853 723f c488 753f
00000070: 0282 6b3f 0a4d 6c3f d003 733f a412 6a3f

bn2.bias f4 [32]
-0.031461257 -0.007190925 -0.08894309 -0.018011615 -0.07998313 -0.029227998 -0.013568489 -0.09258343
-0.0037845217 -0.07627521 -0.041844994 -0.05646286 -0.0773136 -0.054626763 -0.06580421 -0.027777426
-0.0632706 -0.021653594 -0.06421775 -0.026596121 -0.030287113 -0.062384773 -0.08977097 -0.006468512
-0.037976194 -0.05387903 -0.021280032 -0.03670976 -0.037292264 -0.060967036 -0.026247932 -0.05590514
00000000: 85dd 00bd daa1 ebbb cb27 b6bd 188d 93bc
00000010: 32ce a3bd 8e6f efbc 5e4e 5ebc 629c bdbd
00000020: bd05 78bb 2d36 9cbd a865 2bbd 9a45 67bd
00000030: 9856 9ebd 50c0 5fbd 5cc4 86bd 7c8d e3bc
00000040: 0494 81bd e162 b1bc 9984 83bd 1ce0 d9bc
00000050: ae1c f8bc 2d87 7fbd d8d9 b7bd d0f5 d3bb
00000060: ed8c 1bbd 42b0 5cbd 7653 aebc f95c 16bd
00000070: c6bf 18bd 92b8 79bd e705 d7bc cafc 64bd

bn2.running_mean f4 [32]
-0.19973728 0.153607 -0.118877865 -0.019442223 -0.99566984 0.03904058 -0.38118482 0.09000915
0.15106902 -0.4555757 -0.46552753 -0.20851867 -0.114198774 0.23030399 -0.15220842 0.09968314
0.30667993 -0.29545614 -0.26254374 -0.14323404 -0.049840547 -0.109669104 -0.5509154 -0.27923656
-0.084626496 0.23315029 -0.34609202 -0.28688234 0.04276791 -0.58778745 0.04931043 -0.29228348
00000000: ee87 4cbe 274b 1d3e 3d76 f3bd 4c45 9fbc
00000010: 38e4 7ebf 04e9 1f3d a82a c3be b856 b83d
00000020: d6b1 1a3e 3841 e9be a059 eebe eb85 55be
00000030: 0ce1 e9bd cfd4 6b3e 86dc 1bbe ad26 cc3d
00000040: 2705 9d3e 0746 97be 226c 86be f2ab 12be
00000050: 9a25 4cbd 329a e0bd cb08 0dbf 18f8 8ebe
00000060: a850 adbd f3be 6e3e f932 b1be 3ee2 92be
00000070: 672d 2f3d 3d79 16bf bcf9 493d 2ea6 95be

bn2.running_var f4 [32]
0.35640448 0.20373046 0.22351952 0.21593125 0.24031398 0.20370461 0.31037778 0.65405446
0.12960654 0.26194376 0.4572951 0.25174555 0.27716643 0.20642035 0.34556544 0.23158336
0.1986795 0.19073716 0.36030948 0.152294 0.16689456 0.26773426 0.28578138 0.18553236
0.16942115 0.24010254 0.17295943 0.2654376 0.44905013 0.34199092 0.12689947 0.4532084
00000000: a67a b63e b89e 503e 4de2 643e 151d 5d3e
00000010: de14 763e f197 503e d6e9 9e3e 1d70 273f
00000020: 94b7 043e 7e1d 863e 9522 ea3e cbe4 803e
00000030: c2e8 8d3e db5f 533e f4ed b03e 3024 6d3e
00000040: a472 4b3e 9a50 433e 7c7a b83e f5f2 1b3e
00000050: 68e6 2a3e 7714 893e f051 923e 32fc 3d3e
00000060: bd7c 2d3e 71dd 753e 471c 313e 70e7 873e
00000070: e6e9 e53e 6f19 af3e eff1 013e ee0a e83e

fc3.weight f4 [1, 32]
0.00053184095 2.1444273e-05 -0.0022368042 0.0008937724 -3.525296e-05 -0.0015453452 0.0015378662 0.00011165954
-0.0012425679 -0.00081532577 0.0004910093 0.0013502736 0.0028807109 -0.0017584361 0.0012206951 -0.00086001836
0.00029902643 0.0018243053 -0.000715372 -0.00034985473 0.002022241 -0.001361253 0.0023015048 0.0030702401
-0.0007648792 -0.0012215078 -0.00012848775 0.0021766024 -0.0019194251 -0.0017093527 0.0014343438 0.0004681797
00000000: 3e6b 0b3a 3ae3 b337 5997 12bb 0d4c 6a3a
00000010: 94dc 13b8 2e8d caba 3a92 c93a c22a ea38
00000020: a9dd a2ba 96bb 55ba 14b7 003a aafb b03a
00000030: 4fca 3c3b 537b e6ba bbff 9f3a db72 61ba
00000040: a6c6 9c39 871d ef3a cd87 3bba b56c b7b9
00000050: 9387 043b 126c b2ba d8d4 163b 1536 493b
00000060: 2d82 48ba 001b a0ba abba 06b9 54a5 0e3b
00000070: 3895 fbba 5c0c e0ba 9700 bc3a 0476 f539

skip.weight f4 [1, 35]
-0.0056035942 -0.05707346 -0.100847065 0.052661534 -0.0052683367 0.009091507 0.10975906 -0.03959169
0.01870529 -0.004451417 -0.09547391 -0.0729434 -0.018342018 0.07202189 -0.07969336 0.0008718381
0.0006213822 0.00032608537 -0.07971375 -0.14159727 -0.09613881 0.028535003 -0.15171851 0.08621568
0.1280456 0.014444431 -0.0067793382 -0.010785581 0.02687753 -0.011787421 0.012504367 -0.036298383
0.0070343884 0.02561687 -0.0143991215
00000000: 5b9e b7bb dcc5 69bd e888 cebd 9fb3 573d
00000010: 03a2 acbb 8bf4 143c 5cc9 e03d e52a 22bd
00000020: d63b 993c 31dd 91bb d387 c3bd 5963 95bd
00000030: 0042 96bc 3680 933d 4636 a3bd 118c 643a
00000040: 41e4 223a 70f6 aa39 f640 a3bd e0fe 10be
00000050: 6de4 c4bd 3dc2 e93c 195c 1bbe d991 b03d
00000060: 631e 033e 56a8 6c3c 3625 debb 01b6 30bc
00000070: 442e dc3c 0720 41bc 1edf 4c3c 9dad 14bd
00000080: ba80 e63b 78da d13c 4bea 6bbc
