models/mlp_TSLA_20260130.pt (torch, 28416 bytes, 18 tensors)

bn_input.weight f4 [35]
00000000: 5243 7a3f 8405 733f c383 813f fb1d 753f
00000010: e68d 7a3f e6c4 7c3f 5d14 793f e082 7e3f
00000020: 51c1 7a3f 1029 713f 9b53 773f 4068 7b3f
00000030: d3b1 813f e36e 773f b4a7 813f 1784 783f
00000040: 8859 843f fec3 823f 0d97 773f 70e7 783f
00000050: a7d7 823f e8e8 803f 5108 803f 8c28 843f
00000060: 800d 773f 2996 813f 3d4b 7f3f 0f66 793f
00000070: bb76 803f 7822 7f3f 87c2 803f 55e5 7c3f
00000080: 8709 7b3f 3f7a 713f acd6 743f
0.9775897 0.9493029 1.0118335 0.9574887 0.9787277 0.98737943 0.97296697 0.9941845
0.9795123 0.9420328 0.96611947 0.9820595 1.0132393 0.96653575 1.0129304 0.97076553
1.0339823 1.0216062 0.9671486 0.97228146 1.0222062 1.0071077 1.0002538 1.0324874
0.96504974 1.012395 0.9972418 0.97421354 1.0036234 0.9966197 1.0059365 0.9878743
0.9806141 0.9432716 0.95640063

bn_input.bias f4 [35]
00000000: 37cd 6f39 d124 48b9 2e5b efb8 9e9d 1438
00000010: cc1d 11b9 2b44 00b7 3878 58b9 8e06 9336
00000020: 4e95 0f39 619e 1138 5a6d f938 0fb5 6838
00000030: 4061 6cb8 df21 db37 735a e2b8 3238 d138
00000040: f0aa 7b38 54e2 ac38 293f a3b8 a1e4 ba39
00000050: 841c f538 37bd bb38 e45e c1b7 3743 0238
00000060: 6728 3137 4c71 4eb7 b24b 21b8 699b 0bb8
00000070: 6dba b0b7 007b ffb6 1d35 1837 651e d7b8
00000080: 3e3e d4b7 2aba d3b7 d6dc 5c39
0.00022869265 -0.00019087202 -0.000114133916 3.5432742e-05 -0.00013839378 -7.645266e-06 -0.0002064415 4.3817045e-06
0.00013693163 3.4718196e-05 0.000118936136 5.5481734e-05 -5.6357356e-05 2.6122607e-05 -0.00010793367 9.976364e-05
6.000226e-05 8.243756e-05 -7.78421e-05 0.00035647026 0.00011687822 8.952099e-05 -2.305158e-05 3.1057014e-05
1.0559429e-05 -1.2304936e-05 -3.8455888e-05 -3.328492e-05 -2.1067646e-05 -7.6139113e-06 9.072272e-06 -0.0001025766
-2.5301353e-05 -2.523985e-05 0.00021063103

bn_input.running_mean f4 [35]
00000000: ee06 983a 50ca 923b 8376 723c 6a0d ba3c
00000010: 1c7c 0dbb d76d 6abb e015 24bb eda7 6fbc
00000020: a5a1 053d a047 0a3d aca2 0c3d 84d6 113d
00000030: d68c 76ba 1d3c 36ba 5980 143a b257 49bb
00000040: 93ee 4a42 bf5d 4842 6efe eebb f73e f1bb
00000050: 5222 9038 3c2b 11be 3952 fa3d b6c2 853e
00000060: b9af 4a3d 60dd 7f3f 1353 c43c 6b6a 023f
00000070: 9002 033f bc7b 023f d843 fe3e ee06 983a
00000080: 50ca 923b 8376 723c 6a0d ba3c
0.0011598745 0.004479684 0.014798763 0.022711474 -0.0021588868 -0.0035771036 -0.0025037453 -0.014627439
0.03262486 0.033759713 0.034334823 0.03560497 -0.00094051415 -0.00069517066 0.0005664877 -0.0030722436
50.732983 50.09155 -0.007293514 -0.0073622423 6.872848e-05 -0.14176649 0.12222714 0.26125115
0.04948399 0.99947166 0.023965394 0.5094363 0.51175785 0.50970054 0.49661136 0.0011598745
0.004479684 0.014798763 0.022711474

bn_input.running_var f4 [35]
00000000: 9c49 dc3b 2196 893c 72a2 183d 864b 9f3d
00000010: 06b8 dc3b 543e 853c 3be6 0b3d 822e 9c3d
00000020: f3aa 6639 a5e7 0b39 eec0 d338 ee92 8e38
00000030: 38bc bc3a 88f5 7f3b 2cfa 2a3c a615 d83c
00000040: e05d c243 398a 4043 974e 103b 5bc9 fc3a
00000050: 3aa5 5c39 ce4b a73c a18a 3a3c 8803 9c3c
00000060: 676a 5739 1144 803d c99b 863d 7338 c33d
00000070: f87b d03d 84a9 ca3d d9fe b53d 9c49 dc3b
00000080: 2196 893c 72a2 183d 864b 9f3d
0.006722642 0.01679522 0.037264295 0.07778077 0.0067358045 0.016265072 0.03415511 0.07626058
0.00021998193 0.00013342367 0.000100972 6.7984554e-05 0.0014399355 0.003905626 0.010435622 0.02637751
388.7334 192.53993 0.00220195 0.0019286083 0.00021042387 0.020421889 0.011385591 0.019044653
0.00020543636 0.06262983 0.065726824 0.09532251 0.10179895 0.09895614 0.08886499 0.006722642
0.01679522 0.037264295 0.07778077

fc1.weight f4 [64, 35]
00000000: aabe ae3d 2d6e 4abd 020a 96bc 3e15 c13d
00000010: 0289 803d d549 f13d b256 d33c c80a 103e
00000020: a5eb e1bd e79f 7c3d 82f2 cfbc 8bd2 723d
00000030: 2b5f 27be 2d4a 36be 14a1 723c 7195 2a3e
00000040: 5cd9 d83c 983e 80bd 4dea 913b ac98 fc3a
00000050: 98a4 453d 359a 2d3d 04ca 07be 1cea 303b
00000060: bc9a e0bd 1fc7 f23d c088 783d 1147 03be
00000070: 2a8f 2e3d b50c 1bbe 0fb2 15be ed06 843d
00000080: ca0c e2bd 5388 1abe add3 0bbe a3cd 9f3d
00000090: b6dd 07be 7377 b0bd 14cd 133e 00b4 8b3d
000000a0: 02cc 03be 9dd2 2a39 efb3 14bd 0864 ce3d
000000b0: ee2a 273d 5c79 e03c 0bbf 40bc 47e5 4fbe
000000c0: 53a3 0e3e 8a5a 1abb 47ef 85bd f7c7 08bd
000000d0: 21fd 98b9 c2cf db3d eba3 9a3d 7fb6 b13c
000000e0: 6d44 2a3d ecca 073e 33cd 373e 8cc9 b8bd
000000f0: f6ae 493e d0dd fa39 ad2f e13d 2e66 4dbd
00000100: 4300 99bc 2a09 2abe dcf8 edbd dcef 963d
00000110: 2952 94bd 8077 0e3e edce 1f3e 3afa d7bd
00000120: 84b0 db3d a179 ebbd c3e1 a7bd 7223 5b3d
00000130: 45a2 153e edd2 c6bc 4a61 0fbe ba71 29bc
00000140: 7f88 8fbd 0441 5b3d 1277 17be aece f23d
00000150: d28b b8bd 257d 8ebd 7ec7 f33d d0ee 11be
00000160: 0261 803d 0858 6abd 562f f1bd e9a0 0abc
00000170: da19 283d 513e 393e ecf2 04bd 233a 413e
00000180: 3788 d9bd 5a8f d2bc 97a5 ba3c 63d4 cbbd
00000190: 845f 42bd 2cc9 873d bfa7 87bd c759 3cbd
000001a0: ccc4 03bc e977 fbbd 2803 a8bd 1e8f 453e
000001b0: c3bc c0bd 6980 35bd ccd3 ecbd 28cb e43d
000001c0: 600e f33d 22ac 133e a679 98bd 5373 a7bd
000001d0: 9d32 983d 6522 e63d 5a81 a33d bf79 c2bd
000001e0: 9187 1f3e 6bc9 d63d 6ca4 b53d 9efc 9abd
000001f0: 1398 023e 19b8 3a3d c61f bfbd 0fcf b43d
00000200: 37fb ae3d 1a08 e3bd 044d f6bd cd91 12bb
00000210: 9a48 383d 7440 9c3d e878 863d 3c13 84bd
00000220: c67b ce3c e77f 483d c18c 593e 8346 263e
00000230: 7320 08bd 88e8 85bd bb00 943d 46f6 113a
00000240: ce83 0fbd 548f 5b3c 1513 57bb 5af5 1ebd
00000250: 7158 46bd 5be9 9ebd 2dd6 c83d 8afe 333e
00000260: 293e f73d ef95 203e edfe 22bd 252c 09bd
00000270: 07ed 433e a1fa 9bbc b810 503d 6f79 033e
00000280: fbac 783d ad3f 9cbc 759a ecbd 080a 203a
00000290: 8e3a 043e 5193 6bbd b858 cebc e163 13bd
000002a0: 13c4 a6bc 1570 38be c2c0 c4bd 5e4a a53d
000002b0: 46b9 69bd f102 b53d 8a5e 9dbd 7873 17be
000002c0: ba3b a93c bff2 cabc f2f0 9f3d 8a56 9a3d
000002d0: 84e3 d5bc 27db 9e3b b694 bc3d 56d5 a2bd
000002e0: 663a 403e b947 07bd 1b08 df3d b6ae 973d
000002f0: 0d90 85bd fffb 903d 861f 083e b269 f6bd
00000300: 29a5 e33d f909 e03d 69c6 023d b381 163e
00000310: 1169 1a3e bbb9 80bc 9380 efbd b830 6b3c
00000320: c37f b13a 922f fa3c f46c 3dbe 6934 153e
00000330: 7b55 41bc d6e1 4dbd 8266 ac3d b420 013e
00000340: 1ad2 403d 6192 eebd 1ada a43d 3a3e 9f3c
00000350: 8cae 103e c39c c4bd e0fa f23d 0a01 1c3e
00000360: bfa1 083c 369c 0bbe 0f58 d83d 2ae8 0fbe
00000370: b570 593d 4617 893d 24ef c53d 472e dabd
00000380: ee45 8fbd fa19 acbd 274f 013e e2a9 303e
00000390: 1074 1b3e 3ccc fe3d 95b4 0bbe 831a 2cbe
000003a0: 5141 ff3d ecd9 9c3d 3462 593d dcbb 8d3d
000003b0: 5de7 0e3e bd2d f83d 1588 f7bd 38e8 113d
000003c0: 6d26 2f3d 4b43 a23d 6807 e33d 593e 8bbd
000003d0: 1e22 e4bd 13ca ffbd 799d 083e 7723 f73c
000003e0: 3364 bebc ba4b 9f3b 1b39 053e 48c6 373d
000003f0: 5f3c d5bd 69db d63d 6881 a7bd 9b15 253d
0.0853246 -0.049421478 -0.018315319 0.0942788 0.06276132 0.117816605 0.025798175 0.14066613
-0.11031274 0.061675932 -0.025384191 0.05928282 -0.16344897 -0.17801733 0.014808912 0.1665857
0.026470833 -0.06261939 0.0044529797 0.0019271574 0.048252672 0.04238339 -0.13260657 0.0026995009
-0.10967013 0.118543856 0.06067729 -0.12820078 0.042617 -0.15141566 -0.14618705 0.064466335
-0.110375956 -0.15091066 -0.13654967 0.07802894 -0.1326817 -0.08616533 0.144337 0.06821442
-0.12870792 0.00016290923 -0.03630441 0.10077673 0.040812425 0.027401619 -0.011764298 -0.20302306
0.13929491 -0.00235525 -0.06539779 -0.033393826 -0.00029180295 0.10732986 0.07550796 0.021693466
0.041569162 0.13261002 0.17949371 -0.09022817 0.19695649 0.0004784898 0.109954216 -0.050146274
-0.018676883 -0.16605058 -0.11619732 0.07369968 -0.07242233 0.13912773 0.1560628 -0.10545774
0.10727027 -0.11497808 -0.081973575 0.0535006 0.14612682 -0.0242705 -0.14001957 -0.010342056
-0.070084564 0.0535288 -0.14791515 0.11855827 -0.090110436 -0.06957463 0.119032845 -0.14251256
0.06268503 -0.05721286 -0.11776607 -0.0084612155 0.04104028 0.18090178 -0.03245823 0.18869834
-0.10621684 -0.025703121 0.022784038 -0.09952619 -0.047454372 0.06630167 -0.06623792 -0.045984056
-0.0080425255 -0.122787304 -0.08203727 0.19292876 -0.094110034 -0.044311915 -0.115638345 0.111715615
0.11867976 0.14421132 -0.074450776 -0.08176293 0.07431529 0.11237029 0.07983656 -0.094958775
0.15579058 0.10487636 0.088692516 -0.07567714 0.12753324 0.045585725 -0.09332232 0.08828556
0.08544009 -0.110855296 -0.12026408 -0.0022364736 0.044991113 0.07629481 0.0656603 -0.06448981
0.025205504 0.048950102 0.212451 0.16237836 -0.03323407 -0.065384924 0.07226702 0.00055680086
-0.035037808 0.013400871 -0.003281777 -0.038808204 -0.048424188 -0.07759353 0.09806476 0.17577568
0.12072403 0.15682195 -0.039793897 -0.033489365 0.19133388 -0.019040408 0.050797194 0.12839292
0.060711842 -0.019073332 -0.11552898 0.00061050104 0.12912962 -0.05751354 -0.025188789 -0.035983924
-0.020357167 -0.18011506 -0.09607078 0.08070825 -0.057061456 0.08838452 -0.076840475 -0.14790142
0.020658363 -0.024773953 0.078096285 0.07536037 -0.026109464 0.0048479023 0.09208052 -0.07950847
0.18772277 -0.033027384 0.10890218 0.0740637 -0.06521616 0.070793144 0.13293275 -0.120318785
0.11115486 0.10939402 0.0319275 0.14697914 0.15079142 -0.015713563 -0.116944455 0.014354877
0.0013542104 0.030540261 -0.18498594 0.14570774 -0.011800165 -0.050264202 0.08417989 0.12610132
0.04707537 -0.11649013 0.08049412 0.019438852 0.14129084 -0.096002124 0.11864257 0.15234771
0.0083393445 -0.13633808 0.10563671 -0.14053407 0.053086 0.06693892 0.09664753 -0.10653358
-0.0699576 -0.08403392 0.1262785 0.17252305 0.15180993 0.12441298 -0.13643105 -0.16806988
0.1246363 0.07658753 0.05307217 0.06920597 0.13955446 0.12118099 -0.120865025 0.03562185
0.042761255 0.07922991 0.11085397 -0.06799001 -0.1113932 -0.124897145 0.13341321 0.030168278
-0.023241138 0.004861322 0.13010065 0.04486683 -0.104119055 0.10491068 -0.08178979 0.040303808

fc1.bias f4 [64]
00000000: 6028 773c 81ac 1d3d 1578 993d 9c84 93bd
00000010: e23d c83d 8bad 6f3d 7bf1 a53d 88a4 b53d
00000020: 32e6 fe3d b0a1 b63d 9e46 a13d 4da4 133e
00000030: a207 15be 4f36 0f3e 66b3 17bd 800c 233c
00000040: 28f4 21be 1f6e 28be 7926 723d efc3 22be
00000050: 2059 21be 3adf 733d 2ed4 fd3d 10c5 813d
00000060: 3a94 fb3d 18b6 49bd 14ac fe3c 66fc b7bd
00000070: 0439 083e 478b d03d b5ce 293e 5866 273e
00000080: 00d0 41bd d36c d93d 7a5a 70bd 145e 26bd
00000090: efc0 c23d 1fd5 0c3e b58c 4cbd b198 a43d
000000a0: d55f 193e a8ed bebd 61bd f6bd 08a8 803d
000000b0: 5a78 d0bd de9a 3bbc 2263 5f3c d774 cd3d
000000c0: e99c e23d e996 283e 36c8 c63d 8458 9d3d
000000d0: 11c0 2dbd f973 26bc a59d 90bd d8dd 16be
000000e0: 9091 d73d ef29 c3bd e851 0abe 375f f13c
000000f0: df68 b33d 6a57 44bb c82a 163e a880 6cbd
0.01508531 0.03849459 0.07493607 -0.072030276 0.09777428 0.058515113 0.08102699 0.088692725
0.1244625 0.08917558 0.07874797 0.14418145 -0.14553693 0.13985561 -0.037036322 0.009951711
-0.15815794 -0.16448258 0.05911872 -0.15895055 -0.15756655 0.059539057 0.12393986 0.06336415
0.12284131 -0.049245924 0.031087913 -0.08983688 0.13303 0.10182815 0.16582759 0.16347635
-0.047317505 0.1061646 -0.058680035 -0.040617064 0.095094554 0.13753174 -0.049938876 0.08036936
0.14977963 -0.09322673 -0.1204784 0.062820494 -0.10179205 -0.011450497 0.013634475 0.10032051
0.110650845 0.16463818 0.09706156 0.07682899 -0.042419497 -0.010159486 -0.07061318 -0.14733064
0.10525811 -0.095294826 -0.13507807 0.029464347 0.08760237 -0.002995933 0.14664757 -0.057739884

bn1.weight f4 [64]
00000000: 793e 7c3f 370b 813f bb81 863f aa1d 803f
00000010: a557 7a3f 85e1 7e3f 47b1 7b3f 08e8 793f
00000020: 52ab 7b3f 999c 783f 0f52 743f 63b5 763f
00000030: 7346 783f 2770 743f 7839 7b3f 686f 7b3f
00000040: 399c 773f 1d4c 863f cdbf 843f c433 733f
00000050: a701 743f 8eea 7d3f 7140 813f 65b5 803f
00000060: ab1c 783f 42db 753f b4a2 813f 9187 843f
00000070: 56a9 813f c3a3 7c3f 5e5a 8c3f 24d3 7e3f
00000080: 3a6c 853f c9e4 763f 6b94 833f d5cc 7a3f
00000090: b407 7f3f cca2 7c3f 65a3 803f d18b 803f
000000a0: f268 813f 951a 7d3f ea36 743f 67bd 783f
000000b0: 81b0 803f 1019 793f eda2 733f 945e 7b3f
000000c0: 413b 7b3f eb45 743f 0ddc 803f fc9f 833f
000000d0: cb1e 833f 9786 743f 25cc 743f b0dd 743f
000000e0: df4b 7d3f 66a5 793f abec 723f a80e 7a3f
000000f0: b0df 813f 274f 773f 90cf 753f cfd8 763f
0.98532826 1.0081547 1.0508341 1.0009053 0.97789985 0.99562865 0.9831738 0.97619677
0.9830829 0.9711395 0.9543771 0.96370524 0.96982497 0.9548363 0.98134565 0.9821687
0.9672275 1.0491978 1.0371033 0.95000863 0.9531502 0.9918603 1.0097791 1.0055357
0.96918744 0.96037686 1.0127778 1.0353872 1.0129802 0.9868738 1.0965078 0.99540925
1.0423653 0.9644285 1.0279669 0.979688 0.9962113 0.9868591 1.0049864 1.0042669
1.0110152 0.98868686 0.9539629 0.97164005 1.0053865 0.9730387 0.9517048 0.9819119
0.9813729 0.95419186 1.0067154 1.0283198 1.0243772 0.9551787 0.95624 0.9565077
0.98943895 0.97518003 0.94892377 0.97678614 1.0146389 0.9660515 0.9601984 0.96424574

bn1.bias f4 [64]
00000000: faf7 c1ba eafe afbc c753 7c3c 6333 81bc
00000010: ebd6 463c 5aa1 17bb fa75 1dbd 8d69 933b
00000020: d8f8 03bc ad10 83bc 90ec cbbc 1961 d0bc
00000030: 5899 16bd be6c 87bc cdee 2ebd bf7f dabb
00000040: 0d6e c5b9 02ee 0abd df32 cf3b ac7a c4bc
00000050: 69d9 e3bc d393 c53b 9188 293c f5db ca3c
00000060: 4f15 0bbd 9748 ecbc 61ea 7ebb e954 5dbb
00000070: 50fe 8f3c 7264 4fbc d688 823c 158c 68bd
00000080: f6c0 8cbb 94e4 fbbc 55af 383d 6f29 413b
00000090: 2713 11bd 840c cabc 77ef d33b ecae 173d
000000a0: 8249 273b a4f8 c3ba 7a4a cdbc 988f e9bc
000000b0: 43bd f6bb 3567 5abb a733 9abc 499f 823c
000000c0: 1e7b c9bc 7578 d5bc 8397 66bd 5107 f63c
000000d0: 4fd2 05bc 082a 543b 8e5e 01bd 7370 cabc
000000e0: 3205 1fbc ea30 f6bc f303 e4bc 9d00 39bd
000000f0: ee6b d0bc aa1b 30bd a5ac 5ebd 169d 313a
-0.0014798634 -0.021483857 0.015400833 -0.015771573 0.012136201 -0.0023136945 -0.03844259 0.0044986666
-0.008054934 -0.015999163 -0.024893075 -0.025436925 -0.036767334 -0.016531345 -0.042708207 -0.0066680606
-0.00037656762 -0.03391839 0.006323203 -0.023984276 -0.02781363 0.006029585 0.010347501 0.024763087
-0.03395587 -0.028843207 -0.0038897025 -0.0033772534 0.01757732 -0.012658225 0.01593439 -0.056774218
-0.0042954637 -0.030748643 0.045089085 0.002947416 -0.035418656 -0.024664171 0.0064677554 0.037032053
0.0025525992 -0.001495142 -0.025059927 -0.028510854 -0.007529886 -0.0033325676 -0.018823458 0.015945094
-0.02459484 -0.026058415 -0.056296837 0.030032786 -0.008167817 0.0032373685 -0.031584315 -0.024711823
-0.0097058285 -0.03005262 -0.027833914 -0.0451666 -0.02544209 -0.042995133 -0.054363865 0.0006775422

bn1.running_mean f4 [64]
00000000: a541 773c 193b 1e3d 0267 993d de63 93bd
00000010: ec59 c83d ea7a 6f3d e3e1 a53d 387d b53d
00000020: 20f0 fe3d a068 b63d 3e2e a13d 62b4 133e
00000030: 4e00 15be 2e13 0f3e b18d 17bd 64a3 243c
00000040: 4808 22be 446a 28be 7e69 723d bbc5 22be
00000050: 0f55 21be f753 743d 3dcb fd3d e7a4 813d
00000060: becc fb3d 81ea 49bd bf23 ff3c b7f9 b7bd
00000070: b049 083e 0d48 d03d 0cde 293e 4364 273e
00000080: bcb4 41bd 13b1 d93d 216f 70bd d356 26bd
00000090: 6ce0 c23d 8101 0d3e 1a3e 4cbd c485 a43d
000000a0: 4467 193e b9e7 bebd c3a5 f6bd 46d0 803d
000000b0: aa6f d0bd 844e 3cbc aa90 5e3c 2880 cd3d
000000c0: 2ac1 e23d fca1 283e 33c0 c63d 6453 9d3d
000000d0: 58bf 2dbd 09f9 26bc e791 90bd bced 16be
000000e0: f5c3 d73d 1d0c c3bd 7044 0abe 024b f13c
000000f0: c355 b33d 783a 48bb 2339 163e 0274 6cbd
0.0150913345 0.03863058 0.0749035 -0.071967825 0.09782776 0.05846683 0.08099725 0.08861774
0.12448144 0.089066744 0.07870148 0.1442428 -0.14550897 0.1397216 -0.03700036 0.010048721
-0.15823472 -0.16446787 0.059182636 -0.1589574 -0.15755104 0.059650388 0.1239228 0.06330281
0.12294911 -0.049295906 0.031144975 -0.08983176 0.1330936 0.101699926 0.1658861 0.1634684
-0.047291502 0.10629477 -0.05869973 -0.040610146 0.09515461 0.13770105 -0.049863912 0.08033326
0.14980799 -0.09321541 -0.12043335 0.06289725 -0.10177548 -0.011493329 0.013584295 0.100342095
0.11071999 0.16468042 0.09704628 0.07681921 -0.042418808 -0.010191211 -0.07059079 -0.14739126
0.10535423 -0.09523795 -0.1350267 0.029454712 0.08756592 -0.0030552428 0.14670233 -0.05772782

bn1.running_var f4 [64]
00000000: deb1 7c3e dde7 393e 77ef 0f3e 32a3 673f
00000010: 20ee fe3d 13a1 cb3e f202 0e3f fcab 903e
00000020: 9914 283f 085f b13e c069 473e 4d85 6b3e
00000030: f98e 4b3f 174f ca3e fe1b 033e c13a 753e
00000040: 0edf df3e 7293 273f 0d17 d13d 90b2 7c3e
00000050: 2b45 1b3e ac47 8e3e 59df fa3e fcfc 413e
00000060: 3488 8d3e e892 f53e 7662 8c3e e1d6 783e
00000070: 0f86 8f3e d667 003f 6c11 953d c541 ad3e
00000080: 048c fb3e e30f 333e 9a56 2f3e 01e9 3e3e
00000090: 9621 533e 247b d83d e85e b83e 4166 6e3e
000000a0: c7fd a63e 57e6 973e cd4b a03e af6a 043e
000000b0: 0f51 f83e 0447 303f d9a9 193f 2f0c 2a3f
000000c0: a672 cb3e 1172 c53e 2343 803f dfdc 2b3e
000000d0: 0a2f 063f 4811 e23e 3674 b23e 9f55 5b3e
000000e0: 6e10 173f 64a8 823e 2492 de3d 47f6 dd3d
000000f0: 4213 cf3e 353c 1f3f 5b94 263f dc6a 123f
0.24677226 0.18154855 0.14056192 0.9048339 0.124477625 0.39771327 0.55473244 0.28256214
0.6565643 0.34642816 0.19473934 0.23000069 0.79515034 0.39513466 0.12803647 0.23948194
0.43724865 0.6545936 0.10209475 0.24677491 0.15163104 0.27789056 0.48998526 0.18944162
0.27642977 0.47963643 0.2741887 0.2430072 0.28031966 0.5015844 0.072787136 0.3383924
0.4913026 0.17486529 0.1712288 0.18643571 0.20618281 0.10570362 0.36009908 0.23281194
0.32615492 0.29667923 0.3130783 0.12931322 0.48499343 0.6885836 0.6002479 0.6642484
0.39735907 0.38563588 1.0020489 0.16783474 0.52415526 0.4415381 0.34854287 0.2141938
0.59009445 0.25519097 0.10867718 0.10837989 0.4044438 0.62201244 0.6507012 0.57194304

fc2.weight f4 [32, 64]
00000000: 2cae a0bd cdf5 8b3d 48b2 103e cc91 11be
00000010: 75c8 80bd 884a 733c 70e6 863d c81e cdbd
00000020: d445 b53d 55bd a53c 0c3a 853d 81bf 5e3d
00000030: 2ec0 7bbc 3527 a1bb 8225 173b 6ec8 fdbc
00000040: 27d4 343d 5fb4 e43d f9b8 d03d e89c 51bd
00000050: 6a32 4e3d 76d1 563c dbec cebd bda5 88bd
00000060: a294 873c c92c c8bc 7e87 19bd f35d 51bc
00000070: 68e6 e6bc 99f5 09bb 4349 2fbc 1bbb edbd
00000080: a891 32bd 9476 40be cc63 a2bd 9db2 58bc
00000090: fa15 d53d b8f1 40bd f758 0bbe 545a 013b
000000a0: f236 b0bd 969a a73a 6dd6 eebd 8f1f bbbd
000000b0: f1a7 91b9 4da1 20bd 6a3b a33d 49a0 fc3c
000000c0: fbeb b7bd df4b 3fbd 9925 8abd 9e6c 0fbe
000000d0: acc7 583d 9dd5 803d 3776 17bd ea54 17bd
000000e0: 20b9 fa3b bb68 d03d 4a04 dbbc dd7a 0c3d
000000f0: dd9f 9abd d4a7 d8bd 733e 993d 6ac6 2b3c
00000100: 35b1 cebd 4484 cabc c2dc a5bd 968d 87bd
00000110: c1ac b1bd 2f5f cd3d d036 16be aa15 b63b
00000120: b8e8 883d 9493 d03d 0711 a33d 2d40 d13d
00000130: d5c2 8a3d fe2d b1bd 0583 3dbd ab2a 383d
00000140: fde8 a13d 7980 c1bc f4db b6bd 53d4 16be
00000150: 72f4 46bd 8ebc bcbd fbee bf3d 92af a9bc
00000160: d687 e6bd d0a3 763d 78bc 07be 27fb 4dbd
00000170: c033 a33c db6e 9cbd 2251 aebd 579d bf3d
00000180: 146f 97bd a4ff 8f3d d62f 2bbd c8eb c93d
00000190: 54bb 1e3d 6987 fc3d f1b1 d6bd 9393 d7bd
000001a0: 3ee0 cbbd 742e cc3d 9e35 7ebd 5d4b 21bd
000001b0: 1fb7 3e3d 20d4 a93d 5567 883d 3b77 9bbc
000001c0: df6a b13d b62a a23d f206 8c3d b063 2bbe
000001d0: e84f 7e3d ea08 c4bd 4e99 84bd 575d d3bd
000001e0: a61b dfbd ed5b 5bbd 40e3 9f3d df9b 563d
000001f0: 2154 3cbd 7a14 463d c219 d1bd 0ce0 943d
00000200: 913a 9bbd 00d5 a3bd f7ce ae3d d5aa 83bb
00000210: c8c2 d63b a1ce c8bd 2661 99bd 2ecb eabc
00000220: b644 f6bd a475 a83d 22f5 383d 2a27 d7bc
00000230: a945 a6bd 7f05 f03d b695 1abe aa2c 0d3d
00000240: 34fc c5bd a56b bebd f8f1 5abd 0be9 95bd
00000250: fadf 88bd 8b3f df3c a829 b53c ab20 fd3c
00000260: 98b7 6abd 8777 8abc 1807 883d 0b3f 13be
00000270: 68c4 9c3d 22da d33d 45d4 033e 8762 3bbd
00000280: e27b 16bd 3e52 dabd aade adbb 92db 673d
00000290: 3bb8 c53d 399c 00bd 23f4 1a3b 75b4 eabd
000002a0: 44c7 ddbd bcfa 67bd 22c8 fa3d 45cb 463b
000002b0: df34 b13d 5407 97bd 1185 a8bd ed90 d4bd
000002c0: 7d3c b2bc 56aa 33bd 1623 ac3d 4b55 0abe
000002d0: 63a0 003e 1982 8cbd 8d02 efbd 756f 3d3d
000002e0: fcf8 563d 34a9 79bd 20a4 56bd 7d05 81bd
000002f0: e974 ed3b 465a c53d f60f 94bd f717 0b3d
00000300: 568b a9bc b8b5 e8bd f509 10be f7f1 013d
00000310: 70f1 d8bc f768 1a3e 1f25 aa3b f07a 783d
00000320: e304 81bd ec79 bdba 6388 a83d d92e babc
00000330: 13ec 953c 6047 ac3b 39dd a6bd dfd7 b0bd
00000340: 4cda 52bd 8dfb 7dbd aaa5 c53d 324d bdbb
00000350: 84ca 463d cab7 80bd 785d b8bd 352e 9cbc
00000360: b8e5 04be 04b8 8dbd 2219 0a3d d6bd 7d3b
00000370: 46b9 acbc 9f79 a13d d0c9 f9bd 4feb 9ebd
00000380: 936c 12bd 7687 a1bd 1c46 ae3d c9b3 f33d
00000390: bd3d f8bc 5ecc 91bc 2c95 523d 03ec 023e
000003a0: cfee f83c ce0b efbd 3400 833d 8bdc 8c3d
000003b0: e87b 00be aed1 af3d aaf9 22bd d8b1 813d
000003c0: 14f7 13be 72e7 ac3d 4ed3 75bd 5521 923c
000003d0: 6410 8dbd 24df 8a3d c663 653d db7e 873d
000003e0: f0c6 f23d 27cb 20bd 80f0 babd 9398 183d
000003f0: 83d4 83bd 67db 44bd ab48 86bd 6da1 d23d
-0.07845721 0.06833992 0.14130509 -0.14215773 -0.06288234 0.014849313 0.06586921 -0.10015637
0.08851209 0.020231882 0.06505212 0.05438185 -0.015365643 -0.004918004 0.0023063128 -0.030979361
0.044147637 0.111672156 0.10191531 -0.051175028 0.050341047 0.013111463 -0.1010377 -0.06672237
0.016550366 -0.024435418 -0.03748273 -0.012778747 -0.028186038 -0.0021050929 -0.010698619 -0.11607953
-0.04359594 -0.18795234 -0.07929191 -0.0132261785 0.10404582 -0.04710552 -0.13608156 0.0019737678
-0.0860423 0.0012787159 -0.11661992 -0.09136879 -0.0002778168 -0.03921633 0.07970317 0.030838149
-0.089805566 -0.046703216 -0.067454524 -0.14006278 0.052924797 0.062907435 -0.036977973 -0.036946215
0.007651463 0.10176226 -0.026735444 0.03429686 -0.07550023 -0.10578886 0.07482614 0.010484317
-0.10092393 -0.024721272 -0.08098747 -0.06618802 -0.08675528 0.100279205 -0.14669347 0.005556782
0.066850126 0.10184398 0.07962232 0.10217319 0.067754425 -0.086513504 -0.046267528 0.044962566
0.07905767 -0.02362083 -0.089286715 -0.14729433 -0.048572965 -0.092156515 0.09371754 -0.020713601
-0.112563774 0.060214818 -0.13255489 -0.050288346 0.019922137 -0.076383315 -0.085115686 0.09356182
-0.07394233 0.070311815 -0.041793667 0.09859425 0.03875287 0.12330515 -0.104831584 -0.105261944
-0.0995488 0.09969798 -0.062062852 -0.039378513 0.046561357 0.08292413 0.06660334 -0.018977752
0.08662962 0.07918303 0.06837262 -0.16737247 0.062087923 -0.09572013 -0.06474553 -0.103205375
-0.108939454 -0.053554464 0.078070164 0.052394744 -0.04597867 0.04835937 -0.10209991 0.07269296
-0.0757953 -0.07999611 0.08535569 -0.0040181675 0.0065539815 -0.09805036 -0.07489233 -0.028661337
-0.12024824 0.08225563 0.045155652 -0.026263792 -0.08118755 0.11719798 -0.15096173 0.034466423
-0.096672446 -0.09297875 -0.053453416 -0.0731984 -0.06683345 0.02725198 0.02211459 0.030899366
-0.057303995 -0.016902698 0.06641978 -0.14379518 0.07654649 0.1034434 0.12873943 -0.04574826
-0.036739238 -0.10660218 -0.0053060846 0.056605883 0.0965428 -0.031398986 0.0023644052 -0.11460201
-0.108290225 -0.056635603 0.122452036 0.003033356 0.086526625 -0.073744446 -0.082285054 -0.10379205
-0.021757359 -0.043863617 0.084051296 -0.13509099 0.12561183 -0.06860752 -0.116704084 0.04624887
0.052483544 -0.06095238 -0.052402616 -0.06299875 0.007246603 0.09636359 -0.07229607 0.0339584
-0.020696323 -0.11362785 -0.14066298 0.031724896 -0.026482314 0.15079103 0.0051924135 0.060664117
-0.0629976 -0.0014455891 0.08229139 -0.022727417 0.018301046 0.005257532 -0.081476636 -0.08634924
-0.051477715 -0.062007476 0.096507385 -0.0057770247 0.048532978 -0.06285055 -0.09002203 -0.019065002
-0.12978256 -0.06919864 0.033715375 0.0038717887 -0.021084439 0.078845255 -0.12196696 -0.07759725
-0.035748076 -0.07887165 0.08509466 0.11899526 -0.030302877 -0.017797645 0.051411793 0.12785344
0.03038731 -0.116721734 0.06396523 0.06878003 -0.12547266 0.08584915 -0.03978888 0.06332749
-0.14449722 0.08442582 -0.06001597 0.01783816 -0.06887892 0.06780842 0.056003354 0.06615993
0.118543506 -0.03925624 -0.09127903 0.03725488 -0.06437018 -0.0480608 -0.06556829 0.10284696

fc2.bias f4 [32]
00000000: 36dc 6b3d de9b d6bd 9337 c33d 8d4b 163d
00000010: c7ec 4a3d 3725 f43d dea8 d23d e227 60bd
00000020: af70 b0bd 2ead 18bd 476d 493d 659c 973d
00000030: 85e5 dd3d 6e6d 9b3b f320 ca3c 0f3c e7bd
00000040: 9638 92bd 4f3e 5abc b36b da3d b620 eabd
00000050: 1e24 99bd 46e5 cf3d a156 92bd adfd a1bd
00000060: 60c8 963c cbbd 9fbc ad27 87bd 0a35 19bc
00000070: cb51 debd f0b0 903c 642e a03d 1dc5 c4bd
0.057583056 -0.10478948 0.09532084 0.036693145 0.049542215 0.11921161 0.10286115 -0.054725535
-0.08615243 -0.037274532 0.04917648 0.07402877 0.10834793 0.0047432696 0.024673915 -0.11290752
-0.07139699 -0.01332052 0.10665073 -0.1143202 -0.07477592 0.10151152 -0.071454294 -0.07909713
0.018406093 -0.01949968 -0.065993644 -0.009351024 -0.108554445 0.017662495 0.07821348 -0.09607909

bn2.weight f4 [32]
00000000: f051 5f3f 07e6 743f 7eda 643f 2bb6 713f
00000010: 0153 693f ff70 603f 3833 6b3f 1679 5c3f
00000020: fdca 773f 0fc4 733f b60a 6a3f 5ff8 673f
00000030: 2910 623f bf5d 713f 5689 683f 3f60 673f
00000040: 5433 7c3f 4c31 7e3f 66d0 683f 850d 723f
00000050: bb1e 743f 5c9c 703f 3ab0 633f 0898 693f
00000060: e3ba 6b3f b3ae 673f 9036 743f 90cc 743f
00000070: 3328 633f 6ccf 773f 7ebe 643f 09de 5b3f
0.872344 0.95663494 0.8939589 0.9441859 0.9114228 0.8767242 0.9187503 0.8612226
0.9679411 0.95221037 0.91422594 0.9061336 0.8830591 0.9428367 0.9083456 0.90381235
0.9851582 0.9929397 0.9094299 0.9455188 0.9535939 0.93988585 0.88940775 0.91247606
0.9208204 0.90500945 0.95395756 0.9562464 0.88733214 0.96800876 0.8935317 0.85885674

bn2.bias f4 [32]
00000000: a579 d0bd 4ef9 b6bc e671 bbbd 668e 2fbd
00000010: f0b7 82bd a43a b0bd f9d9 bdbd c926 d4bd
00000020: 5c67 ab3b a66a 46bc 1377 9abd b5cf 9dbd
00000030: 2bd0 e1bd 5020 05bd a771 a4bd 7123 84bd
00000040: 3fcb 913c 2e1a 083c 37b6 87bd 78e6 34bd
00000050: dd76 e7bc 64e6 62bd ae2a bfbd 4fb4 92bd
00000060: 7ff6 54bd e5c9 82bd 9dc5 6dbc 8fc7 b6bc
00000070: 2c50 cdbd caec 0fbc ee22 b9bd 47e8 f0bd
-0.10179452 -0.022335675 -0.09152584 -0.04286041 -0.063827395 -0.08604935 -0.092700906 -0.1035896
0.0052308273 -0.012110388 -0.07542243 -0.077056326 -0.11026033 -0.03250152 -0.0802949 -0.064520724
0.01779711 0.008307023 -0.066265516 -0.044165105 -0.02825492 -0.0553955 -0.093343124 -0.071632974
-0.05199289 -0.063861646 -0.014512447 -0.022311954 -0.10025057 -0.008784482 -0.090398654 -0.117630534

bn2.running_mean f4 [32]
00000000: 74cf a1be f0eb c9be 590e 99be 73a6 05be
00000010: 4866 41be 3583 f1bd ef0b adbe 274e 12bf
00000020: 8de1 f5be 09f6 283d 9c6d 3ebe 00a8 f3be
00000030: 2e84 a7bd 77f4 21bf d9ab 8fbb 1f1c 3e3e
00000040: 2232 78be 17ca dfbe 9ef7 9ebe cd57 26bf
00000050: 209f a8be 23fd 03be a62a 0ebf f775 b93d
00000060: 8144 46be 3585 aabc bcbc bebe 1e79 e6be
00000070: 8b55 31bf 2d52 9dbe a071 31be f972 1bbe
-0.31603587 -0.3943782 -0.2989376 -0.13051777 -0.18886673 -0.11792604 -0.33798167 -0.571505
-0.48023644 0.041250262 -0.185965 -0.4758911 -0.08179508 -0.6326365 -0.0043844995 0.18565415
-0.24237874 -0.4370887 -0.31048292 -0.64977723 -0.32933903 -0.12889533 -0.55533826 0.09055703
-0.1936207 -0.020815471 -0.37253368 -0.4501428 -0.69271153 -0.30726758 -0.17328501 -0.15180577

bn2.running_var f4 [32]
00000000: ead4 b43e ef04 4a3f 4d74 f93e f2f8 743f
00000010: b239 833e 714b 5b3e 5d64 0d3f a495 513f
00000020: 125e 353e 86f4 983e 0cfa 0a3f d2ef ea3e
00000030: 828d 813e 0ea1 2f3f 287c a53e 9c1a cc3e
00000040: b4f0 963e a96c 863e b466 2b3e 4ed4 213f
00000050: b207 873f c132 da3e f858 453f 48df a83e
00000060: 604c ae3e f00a 213f 3904 ea3e e35c 013f
00000070: b897 3f3f 09ba 8a3f 39eb c23e d144 f53e
0.3531869 0.7891378 0.48721543 0.9569236 0.25629956 0.21415497 0.5523127 0.8186896
0.17711666 0.29874057 0.5428779 0.45886093 0.25303274 0.68605125 0.32321286 0.3986405
0.29480517 0.26254776 0.16738397 0.63214576 1.0549223 0.42616847 0.7708888 0.3298285
0.34042645 0.62907314 0.45706347 0.5053236 0.7484088 1.0838023 0.38070086 0.47904065

fc3.weight f4 [1, 32]
00000000: 8eb9 f23a 805f 48bb 5382 5cba 3da7 e1ba
00000010: 140c 5fb9 341e 1f3b 0487 81bb 3ddb 1b3b
00000020: 8e9b 37bb 3a0f e939 65a1 b039 efbf 793a
00000030: e04e 2f3b 7c0c 55ba bbde 1c3b acd6 2f3a
00000040: 4145 baba e54a 23ba ab1c ed39 3ac4 3cba
00000050: 8fce 23bb cf0f 8cba 0cd9 bcba aa6e 4f3b
00000060: db93 073a 0914 6c3a 839d fdba c662 55ba
00000070: 070a 6fbb ff5b 9739 f03a e53a 22cc c13a
0.0018518434 -0.00305745 -0.0008411754 -0.0017215979 -0.00021271437 0.0024279477 -0.0039528627 0.00237818
-0.0028016302 0.00044452568 0.00033689584 0.00095271965 0.0026749894 -0.00081271655 0.0023936469 0.0006707709
-0.0014211313 -0.00062291167 0.00045225522 -0.0007200871 -0.0024994945 -0.0010685864 -0.0014407947 0.0031651654
0.00051718735 0.0009005671 -0.001934931 -0.00081400236 -0.0036474483 0.00028869507 0.0017488878 0.0014785568

skip.weight f4 [1, 35]
00000000: aa18 d53c f322 ec3c 6b18 0cbe 7b2b 1bbd
00000010: 260b a9bd ea06 a9ba 37a1 253e 14cf babb
00000020: b26d 00be cea6 eabc 9d30 04bd f811 25be
00000030: e604 d0bd 293d b43d 7a35 9b3d 001b b6bd
00000040: 3bf7 3f39 c3fc a239 d722 163d 3007 0f3d
00000050: 51e4 343c 9eef 593c ecb9 a3bd c90a a03d
00000060: fc10 e83d cc1a b7bc c18b a93a 18f4 0a3d
00000070: 4dbf eabc 22a1 8bbc e926 d33c d7c0 3abc
00000080: ec6c a43c 40b4 09bd f3fe 163d
0.026012737 0.028825259 -0.1368119 -0.037883263 -0.082540795 -0.0012895737 0.1617478 -0.005700955
-0.12541845 -0.028643992 -0.032272924 -0.16120136 -0.10157184 0.08800728 0.07578559 -0.088918686
0.0001830728 0.0003108737 0.03665432 0.034918964 0.011040763 0.013301758 -0.07994446 0.07814557
0.113313645 -0.022351645 0.0012935327 0.033924192 -0.028655672 -0.017044608 0.02577539 -0.011398516
0.02007147 -0.033619165 0.036864232
